{
  "nodes": [
    {
      "op": "null", 
      "name": "data", 
      "inputs": []
    }, 
    {
      "op": "null", 
      "name": "cifarresnetv20_bn_conv0_fwd_weight", 
      "inputs": []
    }, 
    {
      "op": "null", 
      "name": "cifarresnetv20_bn_conv0_fwd_bias", 
      "inputs": []
    }, 
    {
      "op": "cvm_op", 
      "name": "conv2d32", 
      "attrs": {
        "flatten_data": "0", 
        "func_name": "conv2d", 
        "num_inputs": "3", 
        "num_outputs": "1", 
        "op_attrs": ""
      }, 
      "inputs": [[0, 0, 0], [1, 0, 0], [2, 0, 0]]
    }, 
    {
      "op": "cvm_op", 
      "name": "cvm_right_shift68", 
      "attrs": {
        "flatten_data": "1", 
        "func_name": "cvm_right_shift", 
        "num_inputs": "1", 
        "num_outputs": "1", 
        "op_attrs": ""
      }, 
      "inputs": [[3, 0, 0]]
    }, 
    {
      "op": "null", 
      "name": "cifarresnetv20_bn_conv0_fwd_requant_scale", 
      "inputs": []
    }, 
    {
      "op": "cvm_op", 
      "name": "broadcast_mul54", 
      "attrs": {
        "flatten_data": "0", 
        "func_name": "broadcast_mul", 
        "num_inputs": "2", 
        "num_outputs": "1", 
        "op_attrs": ""
      }, 
      "inputs": [[4, 0, 0], [5, 0, 0]]
    }, 
    {
      "op": "cvm_op", 
      "name": "cvm_right_shift69", 
      "attrs": {
        "flatten_data": "1", 
        "func_name": "cvm_right_shift_1", 
        "num_inputs": "1", 
        "num_outputs": "1", 
        "op_attrs": ""
      }, 
      "inputs": [[6, 0, 0]]
    }, 
    {
      "op": "null", 
      "name": "cifarresnetv20_conv0_stage1_batchnorm0_fwd_weight", 
      "inputs": []
    }, 
    {
      "op": "null", 
      "name": "cifarresnetv20_conv0_stage1_batchnorm0_fwd_bias", 
      "inputs": []
    }, 
    {
      "op": "cvm_op", 
      "name": "conv2d33", 
      "attrs": {
        "flatten_data": "0", 
        "func_name": "conv2d_1", 
        "num_inputs": "3", 
        "num_outputs": "1", 
        "op_attrs": ""
      }, 
      "inputs": [[7, 0, 0], [8, 0, 0], [9, 0, 0]]
    }, 
    {
      "op": "cvm_op", 
      "name": "cvm_clip38", 
      "attrs": {
        "flatten_data": "1", 
        "func_name": "cvm_clip", 
        "num_inputs": "1", 
        "num_outputs": "1", 
        "op_attrs": ""
      }, 
      "inputs": [[10, 0, 0]]
    }, 
    {
      "op": "null", 
      "name": "cifarresnetv20_conv0_stage1_batchnorm0_fwd_requant_scale", 
      "inputs": []
    }, 
    {
      "op": "cvm_op", 
      "name": "broadcast_mul55", 
      "attrs": {
        "flatten_data": "0", 
        "func_name": "broadcast_mul_1", 
        "num_inputs": "2", 
        "num_outputs": "1", 
        "op_attrs": ""
      }, 
      "inputs": [[11, 0, 0], [12, 0, 0]]
    }, 
    {
      "op": "cvm_op", 
      "name": "cvm_right_shift70", 
      "attrs": {
        "flatten_data": "1", 
        "func_name": "cvm_right_shift_2", 
        "num_inputs": "1", 
        "num_outputs": "1", 
        "op_attrs": ""
      }, 
      "inputs": [[13, 0, 0]]
    }, 
    {
      "op": "cvm_op", 
      "name": "relu19", 
      "attrs": {
        "flatten_data": "1", 
        "func_name": "relu", 
        "num_inputs": "1", 
        "num_outputs": "1", 
        "op_attrs": ""
      }, 
      "inputs": [[14, 0, 0]]
    }, 
    {
      "op": "null", 
      "name": "cifarresnetv20_stage1_conv0_batchnorm1_fwd_weight", 
      "inputs": []
    }, 
    {
      "op": "null", 
      "name": "cifarresnetv20_stage1_conv0_batchnorm1_fwd_bias", 
      "inputs": []
    }, 
    {
      "op": "cvm_op", 
      "name": "conv2d35", 
      "attrs": {
        "flatten_data": "0", 
        "func_name": "conv2d_2", 
        "num_inputs": "3", 
        "num_outputs": "1", 
        "op_attrs": ""
      }, 
      "inputs": [[15, 0, 0], [16, 0, 0], [17, 0, 0]]
    }, 
    {
      "op": "cvm_op", 
      "name": "cvm_right_shift72", 
      "attrs": {
        "flatten_data": "1", 
        "func_name": "cvm_right_shift_3", 
        "num_inputs": "1", 
        "num_outputs": "1", 
        "op_attrs": ""
      }, 
      "inputs": [[18, 0, 0]]
    }, 
    {
      "op": "null", 
      "name": "cifarresnetv20_stage1_conv0_batchnorm1_fwd_requant_scale", 
      "inputs": []
    }, 
    {
      "op": "cvm_op", 
      "name": "broadcast_mul57", 
      "attrs": {
        "flatten_data": "0", 
        "func_name": "broadcast_mul_1", 
        "num_inputs": "2", 
        "num_outputs": "1", 
        "op_attrs": ""
      }, 
      "inputs": [[19, 0, 0], [20, 0, 0]]
    }, 
    {
      "op": "cvm_op", 
      "name": "cvm_right_shift73", 
      "attrs": {
        "flatten_data": "1", 
        "func_name": "cvm_right_shift_2", 
        "num_inputs": "1", 
        "num_outputs": "1", 
        "op_attrs": ""
      }, 
      "inputs": [[21, 0, 0]]
    }, 
    {
      "op": "cvm_op", 
      "name": "relu20", 
      "attrs": {
        "flatten_data": "1", 
        "func_name": "relu", 
        "num_inputs": "1", 
        "num_outputs": "1", 
        "op_attrs": ""
      }, 
      "inputs": [[22, 0, 0]]
    }, 
    {
      "op": "null", 
      "name": "cifarresnetv20_stage1_conv1_weight", 
      "inputs": []
    }, 
    {
      "op": "cvm_op", 
      "name": "conv2d36", 
      "attrs": {
        "flatten_data": "0", 
        "func_name": "conv2d_3", 
        "num_inputs": "2", 
        "num_outputs": "1", 
        "op_attrs": ""
      }, 
      "inputs": [[23, 0, 0], [24, 0, 0]]
    }, 
    {
      "op": "cvm_op", 
      "name": "cvm_right_shift74", 
      "attrs": {
        "flatten_data": "1", 
        "func_name": "cvm_right_shift_3", 
        "num_inputs": "1", 
        "num_outputs": "1", 
        "op_attrs": ""
      }, 
      "inputs": [[25, 0, 0]]
    }, 
    {
      "op": "null", 
      "name": "cifarresnetv20_stage1_conv1_fwd_requant_scale", 
      "inputs": []
    }, 
    {
      "op": "cvm_op", 
      "name": "broadcast_mul58", 
      "attrs": {
        "flatten_data": "0", 
        "func_name": "broadcast_mul_1", 
        "num_inputs": "2", 
        "num_outputs": "1", 
        "op_attrs": ""
      }, 
      "inputs": [[26, 0, 0], [27, 0, 0]]
    }, 
    {
      "op": "cvm_op", 
      "name": "cvm_right_shift75", 
      "attrs": {
        "flatten_data": "1", 
        "func_name": "cvm_right_shift_2", 
        "num_inputs": "1", 
        "num_outputs": "1", 
        "op_attrs": ""
      }, 
      "inputs": [[28, 0, 0]]
    }, 
    {
      "op": "cvm_op", 
      "name": "cvm_clip40", 
      "attrs": {
        "flatten_data": "1", 
        "func_name": "cvm_clip_1", 
        "num_inputs": "1", 
        "num_outputs": "1", 
        "op_attrs": ""
      }, 
      "inputs": [[29, 0, 0]]
    }, 
    {
      "op": "null", 
      "name": "cifarresnetv20_stage1__plus0_in0_requant_scale", 
      "inputs": []
    }, 
    {
      "op": "cvm_op", 
      "name": "broadcast_mul59", 
      "attrs": {
        "flatten_data": "0", 
        "func_name": "broadcast_mul_1", 
        "num_inputs": "2", 
        "num_outputs": "1", 
        "op_attrs": ""
      }, 
      "inputs": [[30, 0, 0], [31, 0, 0]]
    }, 
    {
      "op": "cvm_op", 
      "name": "cvm_right_shift76", 
      "attrs": {
        "flatten_data": "1", 
        "func_name": "cvm_right_shift_4", 
        "num_inputs": "1", 
        "num_outputs": "1", 
        "op_attrs": ""
      }, 
      "inputs": [[32, 0, 0]]
    }, 
    {
      "op": "null", 
      "name": "cifarresnetv20_conv0_weight", 
      "inputs": []
    }, 
    {
      "op": "cvm_op", 
      "name": "conv2d34", 
      "attrs": {
        "flatten_data": "0", 
        "func_name": "conv2d_4", 
        "num_inputs": "2", 
        "num_outputs": "1", 
        "op_attrs": ""
      }, 
      "inputs": [[7, 0, 0], [34, 0, 0]]
    }, 
    {
      "op": "cvm_op", 
      "name": "cvm_clip39", 
      "attrs": {
        "flatten_data": "1", 
        "func_name": "cvm_clip_2", 
        "num_inputs": "1", 
        "num_outputs": "1", 
        "op_attrs": ""
      }, 
      "inputs": [[35, 0, 0]]
    }, 
    {
      "op": "null", 
      "name": "cifarresnetv20_conv0_fwd_requant_scale", 
      "inputs": []
    }, 
    {
      "op": "cvm_op", 
      "name": "broadcast_mul56", 
      "attrs": {
        "flatten_data": "0", 
        "func_name": "broadcast_mul_1", 
        "num_inputs": "2", 
        "num_outputs": "1", 
        "op_attrs": ""
      }, 
      "inputs": [[36, 0, 0], [37, 0, 0]]
    }, 
    {
      "op": "cvm_op", 
      "name": "cvm_right_shift71", 
      "attrs": {
        "flatten_data": "1", 
        "func_name": "cvm_right_shift_5", 
        "num_inputs": "1", 
        "num_outputs": "1", 
        "op_attrs": ""
      }, 
      "inputs": [[38, 0, 0]]
    }, 
    {
      "op": "cvm_op", 
      "name": "elemwise_add9", 
      "attrs": {
        "flatten_data": "1", 
        "func_name": "elemwise_add", 
        "num_inputs": "2", 
        "num_outputs": "1", 
        "op_attrs": ""
      }, 
      "inputs": [[33, 0, 0], [39, 0, 0]]
    }, 
    {
      "op": "cvm_op", 
      "name": "cvm_right_shift77", 
      "attrs": {
        "flatten_data": "1", 
        "func_name": "cvm_right_shift_6", 
        "num_inputs": "1", 
        "num_outputs": "1", 
        "op_attrs": ""
      }, 
      "inputs": [[40, 0, 0]]
    }, 
    {
      "op": "null", 
      "name": "cifarresnetv20_stage1__plus0_requant_scale", 
      "inputs": []
    }, 
    {
      "op": "cvm_op", 
      "name": "broadcast_mul60", 
      "attrs": {
        "flatten_data": "0", 
        "func_name": "broadcast_mul_1", 
        "num_inputs": "2", 
        "num_outputs": "1", 
        "op_attrs": ""
      }, 
      "inputs": [[41, 0, 0], [42, 0, 0]]
    }, 
    {
      "op": "cvm_op", 
      "name": "cvm_right_shift78", 
      "attrs": {
        "flatten_data": "1", 
        "func_name": "cvm_right_shift_2", 
        "num_inputs": "1", 
        "num_outputs": "1", 
        "op_attrs": ""
      }, 
      "inputs": [[43, 0, 0]]
    }, 
    {
      "op": "null", 
      "name": "cifarresnetv20_stage1_bn_conv2_fwd_weight", 
      "inputs": []
    }, 
    {
      "op": "null", 
      "name": "cifarresnetv20_stage1_bn_conv2_fwd_bias", 
      "inputs": []
    }, 
    {
      "op": "cvm_op", 
      "name": "conv2d37", 
      "attrs": {
        "flatten_data": "0", 
        "func_name": "conv2d_5", 
        "num_inputs": "3", 
        "num_outputs": "1", 
        "op_attrs": ""
      }, 
      "inputs": [[44, 0, 0], [45, 0, 0], [46, 0, 0]]
    }, 
    {
      "op": "cvm_op", 
      "name": "cvm_clip41", 
      "attrs": {
        "flatten_data": "1", 
        "func_name": "cvm_clip_3", 
        "num_inputs": "1", 
        "num_outputs": "1", 
        "op_attrs": ""
      }, 
      "inputs": [[47, 0, 0]]
    }, 
    {
      "op": "null", 
      "name": "cifarresnetv20_stage1_bn_conv2_fwd_requant_scale", 
      "inputs": []
    }, 
    {
      "op": "cvm_op", 
      "name": "broadcast_mul61", 
      "attrs": {
        "flatten_data": "0", 
        "func_name": "broadcast_mul_1", 
        "num_inputs": "2", 
        "num_outputs": "1", 
        "op_attrs": ""
      }, 
      "inputs": [[48, 0, 0], [49, 0, 0]]
    }, 
    {
      "op": "cvm_op", 
      "name": "cvm_right_shift79", 
      "attrs": {
        "flatten_data": "1", 
        "func_name": "cvm_right_shift_7", 
        "num_inputs": "1", 
        "num_outputs": "1", 
        "op_attrs": ""
      }, 
      "inputs": [[50, 0, 0]]
    }, 
    {
      "op": "cvm_op", 
      "name": "relu21", 
      "attrs": {
        "flatten_data": "1", 
        "func_name": "relu", 
        "num_inputs": "1", 
        "num_outputs": "1", 
        "op_attrs": ""
      }, 
      "inputs": [[51, 0, 0]]
    }, 
    {
      "op": "null", 
      "name": "cifarresnetv20_stage1_conv2_batchnorm3_fwd_weight", 
      "inputs": []
    }, 
    {
      "op": "null", 
      "name": "cifarresnetv20_stage1_conv2_batchnorm3_fwd_bias", 
      "inputs": []
    }, 
    {
      "op": "cvm_op", 
      "name": "conv2d38", 
      "attrs": {
        "flatten_data": "0", 
        "func_name": "conv2d_2", 
        "num_inputs": "3", 
        "num_outputs": "1", 
        "op_attrs": ""
      }, 
      "inputs": [[52, 0, 0], [53, 0, 0], [54, 0, 0]]
    }, 
    {
      "op": "cvm_op", 
      "name": "cvm_right_shift80", 
      "attrs": {
        "flatten_data": "1", 
        "func_name": "cvm_right_shift_3", 
        "num_inputs": "1", 
        "num_outputs": "1", 
        "op_attrs": ""
      }, 
      "inputs": [[55, 0, 0]]
    }, 
    {
      "op": "null", 
      "name": "cifarresnetv20_stage1_conv2_batchnorm3_fwd_requant_scale", 
      "inputs": []
    }, 
    {
      "op": "cvm_op", 
      "name": "broadcast_mul62", 
      "attrs": {
        "flatten_data": "0", 
        "func_name": "broadcast_mul_1", 
        "num_inputs": "2", 
        "num_outputs": "1", 
        "op_attrs": ""
      }, 
      "inputs": [[56, 0, 0], [57, 0, 0]]
    }, 
    {
      "op": "cvm_op", 
      "name": "cvm_right_shift81", 
      "attrs": {
        "flatten_data": "1", 
        "func_name": "cvm_right_shift_2", 
        "num_inputs": "1", 
        "num_outputs": "1", 
        "op_attrs": ""
      }, 
      "inputs": [[58, 0, 0]]
    }, 
    {
      "op": "cvm_op", 
      "name": "relu22", 
      "attrs": {
        "flatten_data": "1", 
        "func_name": "relu", 
        "num_inputs": "1", 
        "num_outputs": "1", 
        "op_attrs": ""
      }, 
      "inputs": [[59, 0, 0]]
    }, 
    {
      "op": "null", 
      "name": "cifarresnetv20_stage1_conv3_weight", 
      "inputs": []
    }, 
    {
      "op": "cvm_op", 
      "name": "conv2d39", 
      "attrs": {
        "flatten_data": "0", 
        "func_name": "conv2d_3", 
        "num_inputs": "2", 
        "num_outputs": "1", 
        "op_attrs": ""
      }, 
      "inputs": [[60, 0, 0], [61, 0, 0]]
    }, 
    {
      "op": "cvm_op", 
      "name": "cvm_clip42", 
      "attrs": {
        "flatten_data": "1", 
        "func_name": "cvm_clip", 
        "num_inputs": "1", 
        "num_outputs": "1", 
        "op_attrs": ""
      }, 
      "inputs": [[62, 0, 0]]
    }, 
    {
      "op": "null", 
      "name": "cifarresnetv20_stage1_conv3_fwd_requant_scale", 
      "inputs": []
    }, 
    {
      "op": "cvm_op", 
      "name": "broadcast_mul63", 
      "attrs": {
        "flatten_data": "0", 
        "func_name": "broadcast_mul_1", 
        "num_inputs": "2", 
        "num_outputs": "1", 
        "op_attrs": ""
      }, 
      "inputs": [[63, 0, 0], [64, 0, 0]]
    }, 
    {
      "op": "cvm_op", 
      "name": "cvm_right_shift82", 
      "attrs": {
        "flatten_data": "1", 
        "func_name": "cvm_right_shift_8", 
        "num_inputs": "1", 
        "num_outputs": "1", 
        "op_attrs": ""
      }, 
      "inputs": [[65, 0, 0]]
    }, 
    {
      "op": "cvm_op", 
      "name": "cvm_clip43", 
      "attrs": {
        "flatten_data": "1", 
        "func_name": "cvm_clip_1", 
        "num_inputs": "1", 
        "num_outputs": "1", 
        "op_attrs": ""
      }, 
      "inputs": [[66, 0, 0]]
    }, 
    {
      "op": "null", 
      "name": "cifarresnetv20_stage1__plus1_in0_requant_scale", 
      "inputs": []
    }, 
    {
      "op": "cvm_op", 
      "name": "broadcast_mul64", 
      "attrs": {
        "flatten_data": "0", 
        "func_name": "broadcast_mul_1", 
        "num_inputs": "2", 
        "num_outputs": "1", 
        "op_attrs": ""
      }, 
      "inputs": [[67, 0, 0], [68, 0, 0]]
    }, 
    {
      "op": "cvm_op", 
      "name": "cvm_right_shift83", 
      "attrs": {
        "flatten_data": "1", 
        "func_name": "cvm_right_shift_2", 
        "num_inputs": "1", 
        "num_outputs": "1", 
        "op_attrs": ""
      }, 
      "inputs": [[69, 0, 0]]
    }, 
    {
      "op": "cvm_op", 
      "name": "elemwise_add10", 
      "attrs": {
        "flatten_data": "1", 
        "func_name": "elemwise_add", 
        "num_inputs": "2", 
        "num_outputs": "1", 
        "op_attrs": ""
      }, 
      "inputs": [[70, 0, 0], [44, 0, 0]]
    }, 
    {
      "op": "cvm_op", 
      "name": "cvm_clip44", 
      "attrs": {
        "flatten_data": "1", 
        "func_name": "cvm_clip_4", 
        "num_inputs": "1", 
        "num_outputs": "1", 
        "op_attrs": ""
      }, 
      "inputs": [[71, 0, 0]]
    }, 
    {
      "op": "null", 
      "name": "cifarresnetv20_stage1__plus1_requant_scale", 
      "inputs": []
    }, 
    {
      "op": "cvm_op", 
      "name": "broadcast_mul65", 
      "attrs": {
        "flatten_data": "0", 
        "func_name": "broadcast_mul_1", 
        "num_inputs": "2", 
        "num_outputs": "1", 
        "op_attrs": ""
      }, 
      "inputs": [[72, 0, 0], [73, 0, 0]]
    }, 
    {
      "op": "cvm_op", 
      "name": "cvm_right_shift84", 
      "attrs": {
        "flatten_data": "1", 
        "func_name": "cvm_right_shift_8", 
        "num_inputs": "1", 
        "num_outputs": "1", 
        "op_attrs": ""
      }, 
      "inputs": [[74, 0, 0]]
    }, 
    {
      "op": "null", 
      "name": "cifarresnetv20_stage1_bn_conv4_fwd_weight", 
      "inputs": []
    }, 
    {
      "op": "null", 
      "name": "cifarresnetv20_stage1_bn_conv4_fwd_bias", 
      "inputs": []
    }, 
    {
      "op": "cvm_op", 
      "name": "conv2d40", 
      "attrs": {
        "flatten_data": "0", 
        "func_name": "conv2d_5", 
        "num_inputs": "3", 
        "num_outputs": "1", 
        "op_attrs": ""
      }, 
      "inputs": [[75, 0, 0], [76, 0, 0], [77, 0, 0]]
    }, 
    {
      "op": "cvm_op", 
      "name": "cvm_clip45", 
      "attrs": {
        "flatten_data": "1", 
        "func_name": "cvm_clip_5", 
        "num_inputs": "1", 
        "num_outputs": "1", 
        "op_attrs": ""
      }, 
      "inputs": [[78, 0, 0]]
    }, 
    {
      "op": "null", 
      "name": "cifarresnetv20_stage1_bn_conv4_fwd_requant_scale", 
      "inputs": []
    }, 
    {
      "op": "cvm_op", 
      "name": "broadcast_mul66", 
      "attrs": {
        "flatten_data": "0", 
        "func_name": "broadcast_mul_1", 
        "num_inputs": "2", 
        "num_outputs": "1", 
        "op_attrs": ""
      }, 
      "inputs": [[79, 0, 0], [80, 0, 0]]
    }, 
    {
      "op": "cvm_op", 
      "name": "cvm_right_shift85", 
      "attrs": {
        "flatten_data": "1", 
        "func_name": "cvm_right_shift_7", 
        "num_inputs": "1", 
        "num_outputs": "1", 
        "op_attrs": ""
      }, 
      "inputs": [[81, 0, 0]]
    }, 
    {
      "op": "cvm_op", 
      "name": "relu23", 
      "attrs": {
        "flatten_data": "1", 
        "func_name": "relu", 
        "num_inputs": "1", 
        "num_outputs": "1", 
        "op_attrs": ""
      }, 
      "inputs": [[82, 0, 0]]
    }, 
    {
      "op": "null", 
      "name": "cifarresnetv20_stage1_conv4_batchnorm5_fwd_weight", 
      "inputs": []
    }, 
    {
      "op": "null", 
      "name": "cifarresnetv20_stage1_conv4_batchnorm5_fwd_bias", 
      "inputs": []
    }, 
    {
      "op": "cvm_op", 
      "name": "conv2d41", 
      "attrs": {
        "flatten_data": "0", 
        "func_name": "conv2d_2", 
        "num_inputs": "3", 
        "num_outputs": "1", 
        "op_attrs": ""
      }, 
      "inputs": [[83, 0, 0], [84, 0, 0], [85, 0, 0]]
    }, 
    {
      "op": "cvm_op", 
      "name": "cvm_right_shift86", 
      "attrs": {
        "flatten_data": "1", 
        "func_name": "cvm_right_shift_9", 
        "num_inputs": "1", 
        "num_outputs": "1", 
        "op_attrs": ""
      }, 
      "inputs": [[86, 0, 0]]
    }, 
    {
      "op": "null", 
      "name": "cifarresnetv20_stage1_conv4_batchnorm5_fwd_requant_scale", 
      "inputs": []
    }, 
    {
      "op": "cvm_op", 
      "name": "broadcast_mul67", 
      "attrs": {
        "flatten_data": "0", 
        "func_name": "broadcast_mul_1", 
        "num_inputs": "2", 
        "num_outputs": "1", 
        "op_attrs": ""
      }, 
      "inputs": [[87, 0, 0], [88, 0, 0]]
    }, 
    {
      "op": "cvm_op", 
      "name": "cvm_right_shift87", 
      "attrs": {
        "flatten_data": "1", 
        "func_name": "cvm_right_shift_2", 
        "num_inputs": "1", 
        "num_outputs": "1", 
        "op_attrs": ""
      }, 
      "inputs": [[89, 0, 0]]
    }, 
    {
      "op": "cvm_op", 
      "name": "relu24", 
      "attrs": {
        "flatten_data": "1", 
        "func_name": "relu", 
        "num_inputs": "1", 
        "num_outputs": "1", 
        "op_attrs": ""
      }, 
      "inputs": [[90, 0, 0]]
    }, 
    {
      "op": "null", 
      "name": "cifarresnetv20_stage1_conv5_weight", 
      "inputs": []
    }, 
    {
      "op": "cvm_op", 
      "name": "conv2d42", 
      "attrs": {
        "flatten_data": "0", 
        "func_name": "conv2d_3", 
        "num_inputs": "2", 
        "num_outputs": "1", 
        "op_attrs": ""
      }, 
      "inputs": [[91, 0, 0], [92, 0, 0]]
    }, 
    {
      "op": "cvm_op", 
      "name": "cvm_clip46", 
      "attrs": {
        "flatten_data": "1", 
        "func_name": "cvm_clip_2", 
        "num_inputs": "1", 
        "num_outputs": "1", 
        "op_attrs": ""
      }, 
      "inputs": [[93, 0, 0]]
    }, 
    {
      "op": "null", 
      "name": "cifarresnetv20_stage1_conv5_fwd_requant_scale", 
      "inputs": []
    }, 
    {
      "op": "cvm_op", 
      "name": "broadcast_mul68", 
      "attrs": {
        "flatten_data": "0", 
        "func_name": "broadcast_mul_1", 
        "num_inputs": "2", 
        "num_outputs": "1", 
        "op_attrs": ""
      }, 
      "inputs": [[94, 0, 0], [95, 0, 0]]
    }, 
    {
      "op": "cvm_op", 
      "name": "cvm_right_shift88", 
      "attrs": {
        "flatten_data": "1", 
        "func_name": "cvm_right_shift_2", 
        "num_inputs": "1", 
        "num_outputs": "1", 
        "op_attrs": ""
      }, 
      "inputs": [[96, 0, 0]]
    }, 
    {
      "op": "cvm_op", 
      "name": "cvm_clip47", 
      "attrs": {
        "flatten_data": "1", 
        "func_name": "cvm_clip_1", 
        "num_inputs": "1", 
        "num_outputs": "1", 
        "op_attrs": ""
      }, 
      "inputs": [[97, 0, 0]]
    }, 
    {
      "op": "null", 
      "name": "cifarresnetv20_stage1__plus2_in0_requant_scale", 
      "inputs": []
    }, 
    {
      "op": "cvm_op", 
      "name": "broadcast_mul69", 
      "attrs": {
        "flatten_data": "0", 
        "func_name": "broadcast_mul_1", 
        "num_inputs": "2", 
        "num_outputs": "1", 
        "op_attrs": ""
      }, 
      "inputs": [[98, 0, 0], [99, 0, 0]]
    }, 
    {
      "op": "cvm_op", 
      "name": "cvm_right_shift89", 
      "attrs": {
        "flatten_data": "1", 
        "func_name": "cvm_right_shift_4", 
        "num_inputs": "1", 
        "num_outputs": "1", 
        "op_attrs": ""
      }, 
      "inputs": [[100, 0, 0]]
    }, 
    {
      "op": "cvm_op", 
      "name": "elemwise_add11", 
      "attrs": {
        "flatten_data": "1", 
        "func_name": "elemwise_add", 
        "num_inputs": "2", 
        "num_outputs": "1", 
        "op_attrs": ""
      }, 
      "inputs": [[101, 0, 0], [75, 0, 0]]
    }, 
    {
      "op": "cvm_op", 
      "name": "cvm_clip48", 
      "attrs": {
        "flatten_data": "1", 
        "func_name": "cvm_clip_4", 
        "num_inputs": "1", 
        "num_outputs": "1", 
        "op_attrs": ""
      }, 
      "inputs": [[102, 0, 0]]
    }, 
    {
      "op": "null", 
      "name": "cifarresnetv20_stage1__plus2_requant_scale", 
      "inputs": []
    }, 
    {
      "op": "cvm_op", 
      "name": "broadcast_mul70", 
      "attrs": {
        "flatten_data": "0", 
        "func_name": "broadcast_mul_1", 
        "num_inputs": "2", 
        "num_outputs": "1", 
        "op_attrs": ""
      }, 
      "inputs": [[103, 0, 0], [104, 0, 0]]
    }, 
    {
      "op": "cvm_op", 
      "name": "cvm_right_shift90", 
      "attrs": {
        "flatten_data": "1", 
        "func_name": "cvm_right_shift_5", 
        "num_inputs": "1", 
        "num_outputs": "1", 
        "op_attrs": ""
      }, 
      "inputs": [[105, 0, 0]]
    }, 
    {
      "op": "null", 
      "name": "cifarresnetv20_stage2_bn_conv0_fwd_weight", 
      "inputs": []
    }, 
    {
      "op": "null", 
      "name": "cifarresnetv20_stage2_bn_conv0_fwd_bias", 
      "inputs": []
    }, 
    {
      "op": "cvm_op", 
      "name": "conv2d43", 
      "attrs": {
        "flatten_data": "0", 
        "func_name": "conv2d_5", 
        "num_inputs": "3", 
        "num_outputs": "1", 
        "op_attrs": ""
      }, 
      "inputs": [[106, 0, 0], [107, 0, 0], [108, 0, 0]]
    }, 
    {
      "op": "cvm_op", 
      "name": "cvm_clip49", 
      "attrs": {
        "flatten_data": "1", 
        "func_name": "cvm_clip_5", 
        "num_inputs": "1", 
        "num_outputs": "1", 
        "op_attrs": ""
      }, 
      "inputs": [[109, 0, 0]]
    }, 
    {
      "op": "null", 
      "name": "cifarresnetv20_stage2_bn_conv0_fwd_requant_scale", 
      "inputs": []
    }, 
    {
      "op": "cvm_op", 
      "name": "broadcast_mul71", 
      "attrs": {
        "flatten_data": "0", 
        "func_name": "broadcast_mul_1", 
        "num_inputs": "2", 
        "num_outputs": "1", 
        "op_attrs": ""
      }, 
      "inputs": [[110, 0, 0], [111, 0, 0]]
    }, 
    {
      "op": "cvm_op", 
      "name": "cvm_right_shift91", 
      "attrs": {
        "flatten_data": "1", 
        "func_name": "cvm_right_shift_2", 
        "num_inputs": "1", 
        "num_outputs": "1", 
        "op_attrs": ""
      }, 
      "inputs": [[112, 0, 0]]
    }, 
    {
      "op": "cvm_op", 
      "name": "relu25", 
      "attrs": {
        "flatten_data": "1", 
        "func_name": "relu", 
        "num_inputs": "1", 
        "num_outputs": "1", 
        "op_attrs": ""
      }, 
      "inputs": [[113, 0, 0]]
    }, 
    {
      "op": "null", 
      "name": "cifarresnetv20_stage2_conv0_batchnorm1_fwd_weight", 
      "inputs": []
    }, 
    {
      "op": "null", 
      "name": "cifarresnetv20_stage2_conv0_batchnorm1_fwd_bias", 
      "inputs": []
    }, 
    {
      "op": "cvm_op", 
      "name": "conv2d45", 
      "attrs": {
        "flatten_data": "0", 
        "func_name": "conv2d_6", 
        "num_inputs": "3", 
        "num_outputs": "1", 
        "op_attrs": ""
      }, 
      "inputs": [[114, 0, 0], [115, 0, 0], [116, 0, 0]]
    }, 
    {
      "op": "cvm_op", 
      "name": "cvm_clip51", 
      "attrs": {
        "flatten_data": "1", 
        "func_name": "cvm_clip_6", 
        "num_inputs": "1", 
        "num_outputs": "1", 
        "op_attrs": ""
      }, 
      "inputs": [[117, 0, 0]]
    }, 
    {
      "op": "null", 
      "name": "cifarresnetv20_stage2_conv0_batchnorm1_fwd_requant_scale", 
      "inputs": []
    }, 
    {
      "op": "cvm_op", 
      "name": "broadcast_mul73", 
      "attrs": {
        "flatten_data": "0", 
        "func_name": "broadcast_mul_2", 
        "num_inputs": "2", 
        "num_outputs": "1", 
        "op_attrs": ""
      }, 
      "inputs": [[118, 0, 0], [119, 0, 0]]
    }, 
    {
      "op": "cvm_op", 
      "name": "cvm_right_shift93", 
      "attrs": {
        "flatten_data": "1", 
        "func_name": "cvm_right_shift_10", 
        "num_inputs": "1", 
        "num_outputs": "1", 
        "op_attrs": ""
      }, 
      "inputs": [[120, 0, 0]]
    }, 
    {
      "op": "cvm_op", 
      "name": "relu26", 
      "attrs": {
        "flatten_data": "1", 
        "func_name": "relu_1", 
        "num_inputs": "1", 
        "num_outputs": "1", 
        "op_attrs": ""
      }, 
      "inputs": [[121, 0, 0]]
    }, 
    {
      "op": "null", 
      "name": "cifarresnetv20_stage2_conv1_weight", 
      "inputs": []
    }, 
    {
      "op": "cvm_op", 
      "name": "conv2d46", 
      "attrs": {
        "flatten_data": "0", 
        "func_name": "conv2d_7", 
        "num_inputs": "2", 
        "num_outputs": "1", 
        "op_attrs": ""
      }, 
      "inputs": [[122, 0, 0], [123, 0, 0]]
    }, 
    {
      "op": "cvm_op", 
      "name": "cvm_clip52", 
      "attrs": {
        "flatten_data": "1", 
        "func_name": "cvm_clip_7", 
        "num_inputs": "1", 
        "num_outputs": "1", 
        "op_attrs": ""
      }, 
      "inputs": [[124, 0, 0]]
    }, 
    {
      "op": "null", 
      "name": "cifarresnetv20_stage2_conv1_fwd_requant_scale", 
      "inputs": []
    }, 
    {
      "op": "cvm_op", 
      "name": "broadcast_mul74", 
      "attrs": {
        "flatten_data": "0", 
        "func_name": "broadcast_mul_2", 
        "num_inputs": "2", 
        "num_outputs": "1", 
        "op_attrs": ""
      }, 
      "inputs": [[125, 0, 0], [126, 0, 0]]
    }, 
    {
      "op": "cvm_op", 
      "name": "cvm_right_shift94", 
      "attrs": {
        "flatten_data": "1", 
        "func_name": "cvm_right_shift_11", 
        "num_inputs": "1", 
        "num_outputs": "1", 
        "op_attrs": ""
      }, 
      "inputs": [[127, 0, 0]]
    }, 
    {
      "op": "cvm_op", 
      "name": "cvm_clip53", 
      "attrs": {
        "flatten_data": "1", 
        "func_name": "cvm_clip_8", 
        "num_inputs": "1", 
        "num_outputs": "1", 
        "op_attrs": ""
      }, 
      "inputs": [[128, 0, 0]]
    }, 
    {
      "op": "null", 
      "name": "cifarresnetv20_stage2__plus0_in0_requant_scale", 
      "inputs": []
    }, 
    {
      "op": "cvm_op", 
      "name": "broadcast_mul75", 
      "attrs": {
        "flatten_data": "0", 
        "func_name": "broadcast_mul_2", 
        "num_inputs": "2", 
        "num_outputs": "1", 
        "op_attrs": ""
      }, 
      "inputs": [[129, 0, 0], [130, 0, 0]]
    }, 
    {
      "op": "cvm_op", 
      "name": "cvm_right_shift95", 
      "attrs": {
        "flatten_data": "1", 
        "func_name": "cvm_right_shift_12", 
        "num_inputs": "1", 
        "num_outputs": "1", 
        "op_attrs": ""
      }, 
      "inputs": [[131, 0, 0]]
    }, 
    {
      "op": "null", 
      "name": "cifarresnetv20_stage2_conv2_weight", 
      "inputs": []
    }, 
    {
      "op": "cvm_op", 
      "name": "conv2d44", 
      "attrs": {
        "flatten_data": "0", 
        "func_name": "conv2d_8", 
        "num_inputs": "2", 
        "num_outputs": "1", 
        "op_attrs": ""
      }, 
      "inputs": [[106, 0, 0], [133, 0, 0]]
    }, 
    {
      "op": "cvm_op", 
      "name": "cvm_clip50", 
      "attrs": {
        "flatten_data": "1", 
        "func_name": "cvm_clip_9", 
        "num_inputs": "1", 
        "num_outputs": "1", 
        "op_attrs": ""
      }, 
      "inputs": [[134, 0, 0]]
    }, 
    {
      "op": "null", 
      "name": "cifarresnetv20_stage2_conv2_fwd_requant_scale", 
      "inputs": []
    }, 
    {
      "op": "cvm_op", 
      "name": "broadcast_mul72", 
      "attrs": {
        "flatten_data": "0", 
        "func_name": "broadcast_mul_2", 
        "num_inputs": "2", 
        "num_outputs": "1", 
        "op_attrs": ""
      }, 
      "inputs": [[135, 0, 0], [136, 0, 0]]
    }, 
    {
      "op": "cvm_op", 
      "name": "cvm_right_shift92", 
      "attrs": {
        "flatten_data": "1", 
        "func_name": "cvm_right_shift_11", 
        "num_inputs": "1", 
        "num_outputs": "1", 
        "op_attrs": ""
      }, 
      "inputs": [[137, 0, 0]]
    }, 
    {
      "op": "cvm_op", 
      "name": "elemwise_add12", 
      "attrs": {
        "flatten_data": "1", 
        "func_name": "elemwise_add_1", 
        "num_inputs": "2", 
        "num_outputs": "1", 
        "op_attrs": ""
      }, 
      "inputs": [[132, 0, 0], [138, 0, 0]]
    }, 
    {
      "op": "cvm_op", 
      "name": "cvm_clip54", 
      "attrs": {
        "flatten_data": "1", 
        "func_name": "cvm_clip_8", 
        "num_inputs": "1", 
        "num_outputs": "1", 
        "op_attrs": ""
      }, 
      "inputs": [[139, 0, 0]]
    }, 
    {
      "op": "null", 
      "name": "cifarresnetv20_stage2__plus0_requant_scale", 
      "inputs": []
    }, 
    {
      "op": "cvm_op", 
      "name": "broadcast_mul76", 
      "attrs": {
        "flatten_data": "0", 
        "func_name": "broadcast_mul_2", 
        "num_inputs": "2", 
        "num_outputs": "1", 
        "op_attrs": ""
      }, 
      "inputs": [[140, 0, 0], [141, 0, 0]]
    }, 
    {
      "op": "cvm_op", 
      "name": "cvm_right_shift96", 
      "attrs": {
        "flatten_data": "1", 
        "func_name": "cvm_right_shift_11", 
        "num_inputs": "1", 
        "num_outputs": "1", 
        "op_attrs": ""
      }, 
      "inputs": [[142, 0, 0]]
    }, 
    {
      "op": "null", 
      "name": "cifarresnetv20_stage2_bn_conv2_fwd_weight", 
      "inputs": []
    }, 
    {
      "op": "null", 
      "name": "cifarresnetv20_stage2_bn_conv2_fwd_bias", 
      "inputs": []
    }, 
    {
      "op": "cvm_op", 
      "name": "conv2d47", 
      "attrs": {
        "flatten_data": "0", 
        "func_name": "conv2d_9", 
        "num_inputs": "3", 
        "num_outputs": "1", 
        "op_attrs": ""
      }, 
      "inputs": [[143, 0, 0], [144, 0, 0], [145, 0, 0]]
    }, 
    {
      "op": "cvm_op", 
      "name": "cvm_clip55", 
      "attrs": {
        "flatten_data": "1", 
        "func_name": "cvm_clip_9", 
        "num_inputs": "1", 
        "num_outputs": "1", 
        "op_attrs": ""
      }, 
      "inputs": [[146, 0, 0]]
    }, 
    {
      "op": "null", 
      "name": "cifarresnetv20_stage2_bn_conv2_fwd_requant_scale", 
      "inputs": []
    }, 
    {
      "op": "cvm_op", 
      "name": "broadcast_mul77", 
      "attrs": {
        "flatten_data": "0", 
        "func_name": "broadcast_mul_2", 
        "num_inputs": "2", 
        "num_outputs": "1", 
        "op_attrs": ""
      }, 
      "inputs": [[147, 0, 0], [148, 0, 0]]
    }, 
    {
      "op": "cvm_op", 
      "name": "cvm_right_shift97", 
      "attrs": {
        "flatten_data": "1", 
        "func_name": "cvm_right_shift_11", 
        "num_inputs": "1", 
        "num_outputs": "1", 
        "op_attrs": ""
      }, 
      "inputs": [[149, 0, 0]]
    }, 
    {
      "op": "cvm_op", 
      "name": "relu27", 
      "attrs": {
        "flatten_data": "1", 
        "func_name": "relu_1", 
        "num_inputs": "1", 
        "num_outputs": "1", 
        "op_attrs": ""
      }, 
      "inputs": [[150, 0, 0]]
    }, 
    {
      "op": "null", 
      "name": "cifarresnetv20_stage2_conv3_batchnorm3_fwd_weight", 
      "inputs": []
    }, 
    {
      "op": "null", 
      "name": "cifarresnetv20_stage2_conv3_batchnorm3_fwd_bias", 
      "inputs": []
    }, 
    {
      "op": "cvm_op", 
      "name": "conv2d48", 
      "attrs": {
        "flatten_data": "0", 
        "func_name": "conv2d_10", 
        "num_inputs": "3", 
        "num_outputs": "1", 
        "op_attrs": ""
      }, 
      "inputs": [[151, 0, 0], [152, 0, 0], [153, 0, 0]]
    }, 
    {
      "op": "cvm_op", 
      "name": "cvm_clip56", 
      "attrs": {
        "flatten_data": "1", 
        "func_name": "cvm_clip_7", 
        "num_inputs": "1", 
        "num_outputs": "1", 
        "op_attrs": ""
      }, 
      "inputs": [[154, 0, 0]]
    }, 
    {
      "op": "null", 
      "name": "cifarresnetv20_stage2_conv3_batchnorm3_fwd_requant_scale", 
      "inputs": []
    }, 
    {
      "op": "cvm_op", 
      "name": "broadcast_mul78", 
      "attrs": {
        "flatten_data": "0", 
        "func_name": "broadcast_mul_2", 
        "num_inputs": "2", 
        "num_outputs": "1", 
        "op_attrs": ""
      }, 
      "inputs": [[155, 0, 0], [156, 0, 0]]
    }, 
    {
      "op": "cvm_op", 
      "name": "cvm_right_shift98", 
      "attrs": {
        "flatten_data": "1", 
        "func_name": "cvm_right_shift_11", 
        "num_inputs": "1", 
        "num_outputs": "1", 
        "op_attrs": ""
      }, 
      "inputs": [[157, 0, 0]]
    }, 
    {
      "op": "cvm_op", 
      "name": "relu28", 
      "attrs": {
        "flatten_data": "1", 
        "func_name": "relu_1", 
        "num_inputs": "1", 
        "num_outputs": "1", 
        "op_attrs": ""
      }, 
      "inputs": [[158, 0, 0]]
    }, 
    {
      "op": "null", 
      "name": "cifarresnetv20_stage2_conv4_weight", 
      "inputs": []
    }, 
    {
      "op": "cvm_op", 
      "name": "conv2d49", 
      "attrs": {
        "flatten_data": "0", 
        "func_name": "conv2d_7", 
        "num_inputs": "2", 
        "num_outputs": "1", 
        "op_attrs": ""
      }, 
      "inputs": [[159, 0, 0], [160, 0, 0]]
    }, 
    {
      "op": "cvm_op", 
      "name": "cvm_clip57", 
      "attrs": {
        "flatten_data": "1", 
        "func_name": "cvm_clip_6", 
        "num_inputs": "1", 
        "num_outputs": "1", 
        "op_attrs": ""
      }, 
      "inputs": [[161, 0, 0]]
    }, 
    {
      "op": "null", 
      "name": "cifarresnetv20_stage2_conv4_fwd_requant_scale", 
      "inputs": []
    }, 
    {
      "op": "cvm_op", 
      "name": "broadcast_mul79", 
      "attrs": {
        "flatten_data": "0", 
        "func_name": "broadcast_mul_2", 
        "num_inputs": "2", 
        "num_outputs": "1", 
        "op_attrs": ""
      }, 
      "inputs": [[162, 0, 0], [163, 0, 0]]
    }, 
    {
      "op": "cvm_op", 
      "name": "cvm_right_shift99", 
      "attrs": {
        "flatten_data": "1", 
        "func_name": "cvm_right_shift_11", 
        "num_inputs": "1", 
        "num_outputs": "1", 
        "op_attrs": ""
      }, 
      "inputs": [[164, 0, 0]]
    }, 
    {
      "op": "cvm_op", 
      "name": "cvm_clip58", 
      "attrs": {
        "flatten_data": "1", 
        "func_name": "cvm_clip_8", 
        "num_inputs": "1", 
        "num_outputs": "1", 
        "op_attrs": ""
      }, 
      "inputs": [[165, 0, 0]]
    }, 
    {
      "op": "null", 
      "name": "cifarresnetv20_stage2__plus1_in0_requant_scale", 
      "inputs": []
    }, 
    {
      "op": "cvm_op", 
      "name": "broadcast_mul80", 
      "attrs": {
        "flatten_data": "0", 
        "func_name": "broadcast_mul_2", 
        "num_inputs": "2", 
        "num_outputs": "1", 
        "op_attrs": ""
      }, 
      "inputs": [[166, 0, 0], [167, 0, 0]]
    }, 
    {
      "op": "cvm_op", 
      "name": "cvm_right_shift100", 
      "attrs": {
        "flatten_data": "1", 
        "func_name": "cvm_right_shift_13", 
        "num_inputs": "1", 
        "num_outputs": "1", 
        "op_attrs": ""
      }, 
      "inputs": [[168, 0, 0]]
    }, 
    {
      "op": "cvm_op", 
      "name": "elemwise_add13", 
      "attrs": {
        "flatten_data": "1", 
        "func_name": "elemwise_add_1", 
        "num_inputs": "2", 
        "num_outputs": "1", 
        "op_attrs": ""
      }, 
      "inputs": [[169, 0, 0], [143, 0, 0]]
    }, 
    {
      "op": "cvm_op", 
      "name": "cvm_clip59", 
      "attrs": {
        "flatten_data": "1", 
        "func_name": "cvm_clip_8", 
        "num_inputs": "1", 
        "num_outputs": "1", 
        "op_attrs": ""
      }, 
      "inputs": [[170, 0, 0]]
    }, 
    {
      "op": "null", 
      "name": "cifarresnetv20_stage2__plus1_requant_scale", 
      "inputs": []
    }, 
    {
      "op": "cvm_op", 
      "name": "broadcast_mul81", 
      "attrs": {
        "flatten_data": "0", 
        "func_name": "broadcast_mul_2", 
        "num_inputs": "2", 
        "num_outputs": "1", 
        "op_attrs": ""
      }, 
      "inputs": [[171, 0, 0], [172, 0, 0]]
    }, 
    {
      "op": "cvm_op", 
      "name": "cvm_right_shift101", 
      "attrs": {
        "flatten_data": "1", 
        "func_name": "cvm_right_shift_11", 
        "num_inputs": "1", 
        "num_outputs": "1", 
        "op_attrs": ""
      }, 
      "inputs": [[173, 0, 0]]
    }, 
    {
      "op": "null", 
      "name": "cifarresnetv20_stage2_bn_conv4_fwd_weight", 
      "inputs": []
    }, 
    {
      "op": "null", 
      "name": "cifarresnetv20_stage2_bn_conv4_fwd_bias", 
      "inputs": []
    }, 
    {
      "op": "cvm_op", 
      "name": "conv2d50", 
      "attrs": {
        "flatten_data": "0", 
        "func_name": "conv2d_9", 
        "num_inputs": "3", 
        "num_outputs": "1", 
        "op_attrs": ""
      }, 
      "inputs": [[174, 0, 0], [175, 0, 0], [176, 0, 0]]
    }, 
    {
      "op": "cvm_op", 
      "name": "cvm_clip60", 
      "attrs": {
        "flatten_data": "1", 
        "func_name": "cvm_clip_9", 
        "num_inputs": "1", 
        "num_outputs": "1", 
        "op_attrs": ""
      }, 
      "inputs": [[177, 0, 0]]
    }, 
    {
      "op": "null", 
      "name": "cifarresnetv20_stage2_bn_conv4_fwd_requant_scale", 
      "inputs": []
    }, 
    {
      "op": "cvm_op", 
      "name": "broadcast_mul82", 
      "attrs": {
        "flatten_data": "0", 
        "func_name": "broadcast_mul_2", 
        "num_inputs": "2", 
        "num_outputs": "1", 
        "op_attrs": ""
      }, 
      "inputs": [[178, 0, 0], [179, 0, 0]]
    }, 
    {
      "op": "cvm_op", 
      "name": "cvm_right_shift102", 
      "attrs": {
        "flatten_data": "1", 
        "func_name": "cvm_right_shift_11", 
        "num_inputs": "1", 
        "num_outputs": "1", 
        "op_attrs": ""
      }, 
      "inputs": [[180, 0, 0]]
    }, 
    {
      "op": "cvm_op", 
      "name": "relu29", 
      "attrs": {
        "flatten_data": "1", 
        "func_name": "relu_1", 
        "num_inputs": "1", 
        "num_outputs": "1", 
        "op_attrs": ""
      }, 
      "inputs": [[181, 0, 0]]
    }, 
    {
      "op": "null", 
      "name": "cifarresnetv20_stage2_conv5_batchnorm5_fwd_weight", 
      "inputs": []
    }, 
    {
      "op": "null", 
      "name": "cifarresnetv20_stage2_conv5_batchnorm5_fwd_bias", 
      "inputs": []
    }, 
    {
      "op": "cvm_op", 
      "name": "conv2d51", 
      "attrs": {
        "flatten_data": "0", 
        "func_name": "conv2d_10", 
        "num_inputs": "3", 
        "num_outputs": "1", 
        "op_attrs": ""
      }, 
      "inputs": [[182, 0, 0], [183, 0, 0], [184, 0, 0]]
    }, 
    {
      "op": "cvm_op", 
      "name": "cvm_right_shift103", 
      "attrs": {
        "flatten_data": "1", 
        "func_name": "cvm_right_shift_14", 
        "num_inputs": "1", 
        "num_outputs": "1", 
        "op_attrs": ""
      }, 
      "inputs": [[185, 0, 0]]
    }, 
    {
      "op": "null", 
      "name": "cifarresnetv20_stage2_conv5_batchnorm5_fwd_requant_scale", 
      "inputs": []
    }, 
    {
      "op": "cvm_op", 
      "name": "broadcast_mul83", 
      "attrs": {
        "flatten_data": "0", 
        "func_name": "broadcast_mul_2", 
        "num_inputs": "2", 
        "num_outputs": "1", 
        "op_attrs": ""
      }, 
      "inputs": [[186, 0, 0], [187, 0, 0]]
    }, 
    {
      "op": "cvm_op", 
      "name": "cvm_right_shift104", 
      "attrs": {
        "flatten_data": "1", 
        "func_name": "cvm_right_shift_11", 
        "num_inputs": "1", 
        "num_outputs": "1", 
        "op_attrs": ""
      }, 
      "inputs": [[188, 0, 0]]
    }, 
    {
      "op": "cvm_op", 
      "name": "relu30", 
      "attrs": {
        "flatten_data": "1", 
        "func_name": "relu_1", 
        "num_inputs": "1", 
        "num_outputs": "1", 
        "op_attrs": ""
      }, 
      "inputs": [[189, 0, 0]]
    }, 
    {
      "op": "null", 
      "name": "cifarresnetv20_stage2_conv6_weight", 
      "inputs": []
    }, 
    {
      "op": "cvm_op", 
      "name": "conv2d52", 
      "attrs": {
        "flatten_data": "0", 
        "func_name": "conv2d_7", 
        "num_inputs": "2", 
        "num_outputs": "1", 
        "op_attrs": ""
      }, 
      "inputs": [[190, 0, 0], [191, 0, 0]]
    }, 
    {
      "op": "cvm_op", 
      "name": "cvm_right_shift105", 
      "attrs": {
        "flatten_data": "1", 
        "func_name": "cvm_right_shift_14", 
        "num_inputs": "1", 
        "num_outputs": "1", 
        "op_attrs": ""
      }, 
      "inputs": [[192, 0, 0]]
    }, 
    {
      "op": "null", 
      "name": "cifarresnetv20_stage2_conv6_fwd_requant_scale", 
      "inputs": []
    }, 
    {
      "op": "cvm_op", 
      "name": "broadcast_mul84", 
      "attrs": {
        "flatten_data": "0", 
        "func_name": "broadcast_mul_2", 
        "num_inputs": "2", 
        "num_outputs": "1", 
        "op_attrs": ""
      }, 
      "inputs": [[193, 0, 0], [194, 0, 0]]
    }, 
    {
      "op": "cvm_op", 
      "name": "cvm_right_shift106", 
      "attrs": {
        "flatten_data": "1", 
        "func_name": "cvm_right_shift_11", 
        "num_inputs": "1", 
        "num_outputs": "1", 
        "op_attrs": ""
      }, 
      "inputs": [[195, 0, 0]]
    }, 
    {
      "op": "cvm_op", 
      "name": "cvm_clip61", 
      "attrs": {
        "flatten_data": "1", 
        "func_name": "cvm_clip_8", 
        "num_inputs": "1", 
        "num_outputs": "1", 
        "op_attrs": ""
      }, 
      "inputs": [[196, 0, 0]]
    }, 
    {
      "op": "null", 
      "name": "cifarresnetv20_stage2__plus2_in0_requant_scale", 
      "inputs": []
    }, 
    {
      "op": "cvm_op", 
      "name": "broadcast_mul85", 
      "attrs": {
        "flatten_data": "0", 
        "func_name": "broadcast_mul_2", 
        "num_inputs": "2", 
        "num_outputs": "1", 
        "op_attrs": ""
      }, 
      "inputs": [[197, 0, 0], [198, 0, 0]]
    }, 
    {
      "op": "cvm_op", 
      "name": "cvm_right_shift107", 
      "attrs": {
        "flatten_data": "1", 
        "func_name": "cvm_right_shift_12", 
        "num_inputs": "1", 
        "num_outputs": "1", 
        "op_attrs": ""
      }, 
      "inputs": [[199, 0, 0]]
    }, 
    {
      "op": "cvm_op", 
      "name": "elemwise_add14", 
      "attrs": {
        "flatten_data": "1", 
        "func_name": "elemwise_add_1", 
        "num_inputs": "2", 
        "num_outputs": "1", 
        "op_attrs": ""
      }, 
      "inputs": [[200, 0, 0], [174, 0, 0]]
    }, 
    {
      "op": "cvm_op", 
      "name": "cvm_right_shift108", 
      "attrs": {
        "flatten_data": "1", 
        "func_name": "cvm_right_shift_15", 
        "num_inputs": "1", 
        "num_outputs": "1", 
        "op_attrs": ""
      }, 
      "inputs": [[201, 0, 0]]
    }, 
    {
      "op": "null", 
      "name": "cifarresnetv20_stage2__plus2_requant_scale", 
      "inputs": []
    }, 
    {
      "op": "cvm_op", 
      "name": "broadcast_mul86", 
      "attrs": {
        "flatten_data": "0", 
        "func_name": "broadcast_mul_2", 
        "num_inputs": "2", 
        "num_outputs": "1", 
        "op_attrs": ""
      }, 
      "inputs": [[202, 0, 0], [203, 0, 0]]
    }, 
    {
      "op": "cvm_op", 
      "name": "cvm_right_shift109", 
      "attrs": {
        "flatten_data": "1", 
        "func_name": "cvm_right_shift_11", 
        "num_inputs": "1", 
        "num_outputs": "1", 
        "op_attrs": ""
      }, 
      "inputs": [[204, 0, 0]]
    }, 
    {
      "op": "null", 
      "name": "cifarresnetv20_stage3_bn_conv0_fwd_weight", 
      "inputs": []
    }, 
    {
      "op": "null", 
      "name": "cifarresnetv20_stage3_bn_conv0_fwd_bias", 
      "inputs": []
    }, 
    {
      "op": "cvm_op", 
      "name": "conv2d53", 
      "attrs": {
        "flatten_data": "0", 
        "func_name": "conv2d_9", 
        "num_inputs": "3", 
        "num_outputs": "1", 
        "op_attrs": ""
      }, 
      "inputs": [[205, 0, 0], [206, 0, 0], [207, 0, 0]]
    }, 
    {
      "op": "cvm_op", 
      "name": "cvm_clip62", 
      "attrs": {
        "flatten_data": "1", 
        "func_name": "cvm_clip_9", 
        "num_inputs": "1", 
        "num_outputs": "1", 
        "op_attrs": ""
      }, 
      "inputs": [[208, 0, 0]]
    }, 
    {
      "op": "null", 
      "name": "cifarresnetv20_stage3_bn_conv0_fwd_requant_scale", 
      "inputs": []
    }, 
    {
      "op": "cvm_op", 
      "name": "broadcast_mul87", 
      "attrs": {
        "flatten_data": "0", 
        "func_name": "broadcast_mul_2", 
        "num_inputs": "2", 
        "num_outputs": "1", 
        "op_attrs": ""
      }, 
      "inputs": [[209, 0, 0], [210, 0, 0]]
    }, 
    {
      "op": "cvm_op", 
      "name": "cvm_right_shift111", 
      "attrs": {
        "flatten_data": "1", 
        "func_name": "cvm_right_shift_11", 
        "num_inputs": "1", 
        "num_outputs": "1", 
        "op_attrs": ""
      }, 
      "inputs": [[211, 0, 0]]
    }, 
    {
      "op": "cvm_op", 
      "name": "relu31", 
      "attrs": {
        "flatten_data": "1", 
        "func_name": "relu_1", 
        "num_inputs": "1", 
        "num_outputs": "1", 
        "op_attrs": ""
      }, 
      "inputs": [[212, 0, 0]]
    }, 
    {
      "op": "null", 
      "name": "cifarresnetv20_stage3_conv0_batchnorm1_fwd_weight", 
      "inputs": []
    }, 
    {
      "op": "null", 
      "name": "cifarresnetv20_stage3_conv0_batchnorm1_fwd_bias", 
      "inputs": []
    }, 
    {
      "op": "cvm_op", 
      "name": "conv2d55", 
      "attrs": {
        "flatten_data": "0", 
        "func_name": "conv2d_11", 
        "num_inputs": "3", 
        "num_outputs": "1", 
        "op_attrs": ""
      }, 
      "inputs": [[213, 0, 0], [214, 0, 0], [215, 0, 0]]
    }, 
    {
      "op": "cvm_op", 
      "name": "cvm_clip64", 
      "attrs": {
        "flatten_data": "1", 
        "func_name": "cvm_clip_10", 
        "num_inputs": "1", 
        "num_outputs": "1", 
        "op_attrs": ""
      }, 
      "inputs": [[216, 0, 0]]
    }, 
    {
      "op": "null", 
      "name": "cifarresnetv20_stage3_conv0_batchnorm1_fwd_requant_scale", 
      "inputs": []
    }, 
    {
      "op": "cvm_op", 
      "name": "broadcast_mul90", 
      "attrs": {
        "flatten_data": "0", 
        "func_name": "broadcast_mul_3", 
        "num_inputs": "2", 
        "num_outputs": "1", 
        "op_attrs": ""
      }, 
      "inputs": [[217, 0, 0], [218, 0, 0]]
    }, 
    {
      "op": "cvm_op", 
      "name": "cvm_right_shift114", 
      "attrs": {
        "flatten_data": "1", 
        "func_name": "cvm_right_shift_16", 
        "num_inputs": "1", 
        "num_outputs": "1", 
        "op_attrs": ""
      }, 
      "inputs": [[219, 0, 0]]
    }, 
    {
      "op": "cvm_op", 
      "name": "relu32", 
      "attrs": {
        "flatten_data": "1", 
        "func_name": "relu_2", 
        "num_inputs": "1", 
        "num_outputs": "1", 
        "op_attrs": ""
      }, 
      "inputs": [[220, 0, 0]]
    }, 
    {
      "op": "null", 
      "name": "cifarresnetv20_stage3_conv1_weight", 
      "inputs": []
    }, 
    {
      "op": "cvm_op", 
      "name": "conv2d56", 
      "attrs": {
        "flatten_data": "0", 
        "func_name": "conv2d_12", 
        "num_inputs": "2", 
        "num_outputs": "1", 
        "op_attrs": ""
      }, 
      "inputs": [[221, 0, 0], [222, 0, 0]]
    }, 
    {
      "op": "cvm_op", 
      "name": "cvm_clip65", 
      "attrs": {
        "flatten_data": "1", 
        "func_name": "cvm_clip_10", 
        "num_inputs": "1", 
        "num_outputs": "1", 
        "op_attrs": ""
      }, 
      "inputs": [[223, 0, 0]]
    }, 
    {
      "op": "null", 
      "name": "cifarresnetv20_stage3_conv1_fwd_requant_scale", 
      "inputs": []
    }, 
    {
      "op": "cvm_op", 
      "name": "broadcast_mul91", 
      "attrs": {
        "flatten_data": "0", 
        "func_name": "broadcast_mul_3", 
        "num_inputs": "2", 
        "num_outputs": "1", 
        "op_attrs": ""
      }, 
      "inputs": [[224, 0, 0], [225, 0, 0]]
    }, 
    {
      "op": "cvm_op", 
      "name": "cvm_right_shift115", 
      "attrs": {
        "flatten_data": "1", 
        "func_name": "cvm_right_shift_17", 
        "num_inputs": "1", 
        "num_outputs": "1", 
        "op_attrs": ""
      }, 
      "inputs": [[226, 0, 0]]
    }, 
    {
      "op": "null", 
      "name": "cifarresnetv20_stage3_conv2_weight", 
      "inputs": []
    }, 
    {
      "op": "cvm_op", 
      "name": "conv2d54", 
      "attrs": {
        "flatten_data": "0", 
        "func_name": "conv2d_13", 
        "num_inputs": "2", 
        "num_outputs": "1", 
        "op_attrs": ""
      }, 
      "inputs": [[205, 0, 0], [228, 0, 0]]
    }, 
    {
      "op": "cvm_op", 
      "name": "cvm_right_shift110", 
      "attrs": {
        "flatten_data": "1", 
        "func_name": "cvm_right_shift_18", 
        "num_inputs": "1", 
        "num_outputs": "1", 
        "op_attrs": ""
      }, 
      "inputs": [[229, 0, 0]]
    }, 
    {
      "op": "null", 
      "name": "cifarresnetv20_stage3_conv2_fwd_requant_scale", 
      "inputs": []
    }, 
    {
      "op": "cvm_op", 
      "name": "broadcast_mul88", 
      "attrs": {
        "flatten_data": "0", 
        "func_name": "broadcast_mul_3", 
        "num_inputs": "2", 
        "num_outputs": "1", 
        "op_attrs": ""
      }, 
      "inputs": [[230, 0, 0], [231, 0, 0]]
    }, 
    {
      "op": "cvm_op", 
      "name": "cvm_right_shift112", 
      "attrs": {
        "flatten_data": "1", 
        "func_name": "cvm_right_shift_17", 
        "num_inputs": "1", 
        "num_outputs": "1", 
        "op_attrs": ""
      }, 
      "inputs": [[232, 0, 0]]
    }, 
    {
      "op": "cvm_op", 
      "name": "cvm_clip63", 
      "attrs": {
        "flatten_data": "1", 
        "func_name": "cvm_clip_11", 
        "num_inputs": "1", 
        "num_outputs": "1", 
        "op_attrs": ""
      }, 
      "inputs": [[233, 0, 0]]
    }, 
    {
      "op": "null", 
      "name": "cifarresnetv20_stage3__plus0_in1_requant_scale", 
      "inputs": []
    }, 
    {
      "op": "cvm_op", 
      "name": "broadcast_mul89", 
      "attrs": {
        "flatten_data": "0", 
        "func_name": "broadcast_mul_3", 
        "num_inputs": "2", 
        "num_outputs": "1", 
        "op_attrs": ""
      }, 
      "inputs": [[234, 0, 0], [235, 0, 0]]
    }, 
    {
      "op": "cvm_op", 
      "name": "cvm_right_shift113", 
      "attrs": {
        "flatten_data": "1", 
        "func_name": "cvm_right_shift_17", 
        "num_inputs": "1", 
        "num_outputs": "1", 
        "op_attrs": ""
      }, 
      "inputs": [[236, 0, 0]]
    }, 
    {
      "op": "cvm_op", 
      "name": "elemwise_add15", 
      "attrs": {
        "flatten_data": "1", 
        "func_name": "elemwise_add_2", 
        "num_inputs": "2", 
        "num_outputs": "1", 
        "op_attrs": ""
      }, 
      "inputs": [[227, 0, 0], [237, 0, 0]]
    }, 
    {
      "op": "cvm_op", 
      "name": "cvm_right_shift116", 
      "attrs": {
        "flatten_data": "1", 
        "func_name": "cvm_right_shift_19", 
        "num_inputs": "1", 
        "num_outputs": "1", 
        "op_attrs": ""
      }, 
      "inputs": [[238, 0, 0]]
    }, 
    {
      "op": "null", 
      "name": "cifarresnetv20_stage3__plus0_requant_scale", 
      "inputs": []
    }, 
    {
      "op": "cvm_op", 
      "name": "broadcast_mul92", 
      "attrs": {
        "flatten_data": "0", 
        "func_name": "broadcast_mul_3", 
        "num_inputs": "2", 
        "num_outputs": "1", 
        "op_attrs": ""
      }, 
      "inputs": [[239, 0, 0], [240, 0, 0]]
    }, 
    {
      "op": "cvm_op", 
      "name": "cvm_right_shift117", 
      "attrs": {
        "flatten_data": "1", 
        "func_name": "cvm_right_shift_17", 
        "num_inputs": "1", 
        "num_outputs": "1", 
        "op_attrs": ""
      }, 
      "inputs": [[241, 0, 0]]
    }, 
    {
      "op": "null", 
      "name": "cifarresnetv20_stage3_bn_conv2_fwd_weight", 
      "inputs": []
    }, 
    {
      "op": "null", 
      "name": "cifarresnetv20_stage3_bn_conv2_fwd_bias", 
      "inputs": []
    }, 
    {
      "op": "cvm_op", 
      "name": "conv2d57", 
      "attrs": {
        "flatten_data": "0", 
        "func_name": "conv2d_14", 
        "num_inputs": "3", 
        "num_outputs": "1", 
        "op_attrs": ""
      }, 
      "inputs": [[242, 0, 0], [243, 0, 0], [244, 0, 0]]
    }, 
    {
      "op": "cvm_op", 
      "name": "cvm_right_shift118", 
      "attrs": {
        "flatten_data": "1", 
        "func_name": "cvm_right_shift_20", 
        "num_inputs": "1", 
        "num_outputs": "1", 
        "op_attrs": ""
      }, 
      "inputs": [[245, 0, 0]]
    }, 
    {
      "op": "null", 
      "name": "cifarresnetv20_stage3_bn_conv2_fwd_requant_scale", 
      "inputs": []
    }, 
    {
      "op": "cvm_op", 
      "name": "broadcast_mul94", 
      "attrs": {
        "flatten_data": "0", 
        "func_name": "broadcast_mul_3", 
        "num_inputs": "2", 
        "num_outputs": "1", 
        "op_attrs": ""
      }, 
      "inputs": [[246, 0, 0], [247, 0, 0]]
    }, 
    {
      "op": "cvm_op", 
      "name": "cvm_right_shift120", 
      "attrs": {
        "flatten_data": "1", 
        "func_name": "cvm_right_shift_17", 
        "num_inputs": "1", 
        "num_outputs": "1", 
        "op_attrs": ""
      }, 
      "inputs": [[248, 0, 0]]
    }, 
    {
      "op": "cvm_op", 
      "name": "relu33", 
      "attrs": {
        "flatten_data": "1", 
        "func_name": "relu_2", 
        "num_inputs": "1", 
        "num_outputs": "1", 
        "op_attrs": ""
      }, 
      "inputs": [[249, 0, 0]]
    }, 
    {
      "op": "null", 
      "name": "cifarresnetv20_stage3_conv3_batchnorm3_fwd_weight", 
      "inputs": []
    }, 
    {
      "op": "null", 
      "name": "cifarresnetv20_stage3_conv3_batchnorm3_fwd_bias", 
      "inputs": []
    }, 
    {
      "op": "cvm_op", 
      "name": "conv2d58", 
      "attrs": {
        "flatten_data": "0", 
        "func_name": "conv2d_15", 
        "num_inputs": "3", 
        "num_outputs": "1", 
        "op_attrs": ""
      }, 
      "inputs": [[250, 0, 0], [251, 0, 0], [252, 0, 0]]
    }, 
    {
      "op": "cvm_op", 
      "name": "cvm_clip67", 
      "attrs": {
        "flatten_data": "1", 
        "func_name": "cvm_clip_10", 
        "num_inputs": "1", 
        "num_outputs": "1", 
        "op_attrs": ""
      }, 
      "inputs": [[253, 0, 0]]
    }, 
    {
      "op": "null", 
      "name": "cifarresnetv20_stage3_conv3_batchnorm3_fwd_requant_scale", 
      "inputs": []
    }, 
    {
      "op": "cvm_op", 
      "name": "broadcast_mul95", 
      "attrs": {
        "flatten_data": "0", 
        "func_name": "broadcast_mul_3", 
        "num_inputs": "2", 
        "num_outputs": "1", 
        "op_attrs": ""
      }, 
      "inputs": [[254, 0, 0], [255, 0, 0]]
    }, 
    {
      "op": "cvm_op", 
      "name": "cvm_right_shift121", 
      "attrs": {
        "flatten_data": "1", 
        "func_name": "cvm_right_shift_17", 
        "num_inputs": "1", 
        "num_outputs": "1", 
        "op_attrs": ""
      }, 
      "inputs": [[256, 0, 0]]
    }, 
    {
      "op": "cvm_op", 
      "name": "relu34", 
      "attrs": {
        "flatten_data": "1", 
        "func_name": "relu_2", 
        "num_inputs": "1", 
        "num_outputs": "1", 
        "op_attrs": ""
      }, 
      "inputs": [[257, 0, 0]]
    }, 
    {
      "op": "null", 
      "name": "cifarresnetv20_stage3_conv4_weight", 
      "inputs": []
    }, 
    {
      "op": "cvm_op", 
      "name": "conv2d59", 
      "attrs": {
        "flatten_data": "0", 
        "func_name": "conv2d_12", 
        "num_inputs": "2", 
        "num_outputs": "1", 
        "op_attrs": ""
      }, 
      "inputs": [[258, 0, 0], [259, 0, 0]]
    }, 
    {
      "op": "cvm_op", 
      "name": "cvm_right_shift122", 
      "attrs": {
        "flatten_data": "1", 
        "func_name": "cvm_right_shift_21", 
        "num_inputs": "1", 
        "num_outputs": "1", 
        "op_attrs": ""
      }, 
      "inputs": [[260, 0, 0]]
    }, 
    {
      "op": "null", 
      "name": "cifarresnetv20_stage3_conv4_fwd_requant_scale", 
      "inputs": []
    }, 
    {
      "op": "cvm_op", 
      "name": "broadcast_mul96", 
      "attrs": {
        "flatten_data": "0", 
        "func_name": "broadcast_mul_3", 
        "num_inputs": "2", 
        "num_outputs": "1", 
        "op_attrs": ""
      }, 
      "inputs": [[261, 0, 0], [262, 0, 0]]
    }, 
    {
      "op": "cvm_op", 
      "name": "cvm_right_shift123", 
      "attrs": {
        "flatten_data": "1", 
        "func_name": "cvm_right_shift_17", 
        "num_inputs": "1", 
        "num_outputs": "1", 
        "op_attrs": ""
      }, 
      "inputs": [[263, 0, 0]]
    }, 
    {
      "op": "cvm_op", 
      "name": "cvm_clip66", 
      "attrs": {
        "flatten_data": "1", 
        "func_name": "cvm_clip_11", 
        "num_inputs": "1", 
        "num_outputs": "1", 
        "op_attrs": ""
      }, 
      "inputs": [[242, 0, 0]]
    }, 
    {
      "op": "null", 
      "name": "cifarresnetv20_stage3__plus1_in1_requant_scale", 
      "inputs": []
    }, 
    {
      "op": "cvm_op", 
      "name": "broadcast_mul93", 
      "attrs": {
        "flatten_data": "0", 
        "func_name": "broadcast_mul_3", 
        "num_inputs": "2", 
        "num_outputs": "1", 
        "op_attrs": ""
      }, 
      "inputs": [[265, 0, 0], [266, 0, 0]]
    }, 
    {
      "op": "cvm_op", 
      "name": "cvm_right_shift119", 
      "attrs": {
        "flatten_data": "1", 
        "func_name": "cvm_right_shift_22", 
        "num_inputs": "1", 
        "num_outputs": "1", 
        "op_attrs": ""
      }, 
      "inputs": [[267, 0, 0]]
    }, 
    {
      "op": "cvm_op", 
      "name": "elemwise_add16", 
      "attrs": {
        "flatten_data": "1", 
        "func_name": "elemwise_add_2", 
        "num_inputs": "2", 
        "num_outputs": "1", 
        "op_attrs": ""
      }, 
      "inputs": [[264, 0, 0], [268, 0, 0]]
    }, 
    {
      "op": "cvm_op", 
      "name": "cvm_clip68", 
      "attrs": {
        "flatten_data": "1", 
        "func_name": "cvm_clip_12", 
        "num_inputs": "1", 
        "num_outputs": "1", 
        "op_attrs": ""
      }, 
      "inputs": [[269, 0, 0]]
    }, 
    {
      "op": "null", 
      "name": "cifarresnetv20_stage3__plus1_requant_scale", 
      "inputs": []
    }, 
    {
      "op": "cvm_op", 
      "name": "broadcast_mul97", 
      "attrs": {
        "flatten_data": "0", 
        "func_name": "broadcast_mul_3", 
        "num_inputs": "2", 
        "num_outputs": "1", 
        "op_attrs": ""
      }, 
      "inputs": [[270, 0, 0], [271, 0, 0]]
    }, 
    {
      "op": "cvm_op", 
      "name": "cvm_right_shift124", 
      "attrs": {
        "flatten_data": "1", 
        "func_name": "cvm_right_shift_17", 
        "num_inputs": "1", 
        "num_outputs": "1", 
        "op_attrs": ""
      }, 
      "inputs": [[272, 0, 0]]
    }, 
    {
      "op": "null", 
      "name": "cifarresnetv20_stage3_bn_conv4_fwd_weight", 
      "inputs": []
    }, 
    {
      "op": "null", 
      "name": "cifarresnetv20_stage3_bn_conv4_fwd_bias", 
      "inputs": []
    }, 
    {
      "op": "cvm_op", 
      "name": "conv2d60", 
      "attrs": {
        "flatten_data": "0", 
        "func_name": "conv2d_14", 
        "num_inputs": "3", 
        "num_outputs": "1", 
        "op_attrs": ""
      }, 
      "inputs": [[273, 0, 0], [274, 0, 0], [275, 0, 0]]
    }, 
    {
      "op": "cvm_op", 
      "name": "cvm_right_shift125", 
      "attrs": {
        "flatten_data": "1", 
        "func_name": "cvm_right_shift_20", 
        "num_inputs": "1", 
        "num_outputs": "1", 
        "op_attrs": ""
      }, 
      "inputs": [[276, 0, 0]]
    }, 
    {
      "op": "null", 
      "name": "cifarresnetv20_stage3_bn_conv4_fwd_requant_scale", 
      "inputs": []
    }, 
    {
      "op": "cvm_op", 
      "name": "broadcast_mul99", 
      "attrs": {
        "flatten_data": "0", 
        "func_name": "broadcast_mul_3", 
        "num_inputs": "2", 
        "num_outputs": "1", 
        "op_attrs": ""
      }, 
      "inputs": [[277, 0, 0], [278, 0, 0]]
    }, 
    {
      "op": "cvm_op", 
      "name": "cvm_right_shift127", 
      "attrs": {
        "flatten_data": "1", 
        "func_name": "cvm_right_shift_17", 
        "num_inputs": "1", 
        "num_outputs": "1", 
        "op_attrs": ""
      }, 
      "inputs": [[279, 0, 0]]
    }, 
    {
      "op": "cvm_op", 
      "name": "relu35", 
      "attrs": {
        "flatten_data": "1", 
        "func_name": "relu_2", 
        "num_inputs": "1", 
        "num_outputs": "1", 
        "op_attrs": ""
      }, 
      "inputs": [[280, 0, 0]]
    }, 
    {
      "op": "null", 
      "name": "cifarresnetv20_stage3_conv5_batchnorm5_fwd_weight", 
      "inputs": []
    }, 
    {
      "op": "null", 
      "name": "cifarresnetv20_stage3_conv5_batchnorm5_fwd_bias", 
      "inputs": []
    }, 
    {
      "op": "cvm_op", 
      "name": "conv2d61", 
      "attrs": {
        "flatten_data": "0", 
        "func_name": "conv2d_15", 
        "num_inputs": "3", 
        "num_outputs": "1", 
        "op_attrs": ""
      }, 
      "inputs": [[281, 0, 0], [282, 0, 0], [283, 0, 0]]
    }, 
    {
      "op": "cvm_op", 
      "name": "cvm_clip70", 
      "attrs": {
        "flatten_data": "1", 
        "func_name": "cvm_clip_13", 
        "num_inputs": "1", 
        "num_outputs": "1", 
        "op_attrs": ""
      }, 
      "inputs": [[284, 0, 0]]
    }, 
    {
      "op": "null", 
      "name": "cifarresnetv20_stage3_conv5_batchnorm5_fwd_requant_scale", 
      "inputs": []
    }, 
    {
      "op": "cvm_op", 
      "name": "broadcast_mul100", 
      "attrs": {
        "flatten_data": "0", 
        "func_name": "broadcast_mul_3", 
        "num_inputs": "2", 
        "num_outputs": "1", 
        "op_attrs": ""
      }, 
      "inputs": [[285, 0, 0], [286, 0, 0]]
    }, 
    {
      "op": "cvm_op", 
      "name": "cvm_right_shift128", 
      "attrs": {
        "flatten_data": "1", 
        "func_name": "cvm_right_shift_17", 
        "num_inputs": "1", 
        "num_outputs": "1", 
        "op_attrs": ""
      }, 
      "inputs": [[287, 0, 0]]
    }, 
    {
      "op": "cvm_op", 
      "name": "relu36", 
      "attrs": {
        "flatten_data": "1", 
        "func_name": "relu_2", 
        "num_inputs": "1", 
        "num_outputs": "1", 
        "op_attrs": ""
      }, 
      "inputs": [[288, 0, 0]]
    }, 
    {
      "op": "null", 
      "name": "cifarresnetv20_stage3_conv6_weight", 
      "inputs": []
    }, 
    {
      "op": "cvm_op", 
      "name": "conv2d62", 
      "attrs": {
        "flatten_data": "0", 
        "func_name": "conv2d_12", 
        "num_inputs": "2", 
        "num_outputs": "1", 
        "op_attrs": ""
      }, 
      "inputs": [[289, 0, 0], [290, 0, 0]]
    }, 
    {
      "op": "cvm_op", 
      "name": "cvm_clip71", 
      "attrs": {
        "flatten_data": "1", 
        "func_name": "cvm_clip_14", 
        "num_inputs": "1", 
        "num_outputs": "1", 
        "op_attrs": ""
      }, 
      "inputs": [[291, 0, 0]]
    }, 
    {
      "op": "null", 
      "name": "cifarresnetv20_stage3_conv6_fwd_requant_scale", 
      "inputs": []
    }, 
    {
      "op": "cvm_op", 
      "name": "broadcast_mul101", 
      "attrs": {
        "flatten_data": "0", 
        "func_name": "broadcast_mul_3", 
        "num_inputs": "2", 
        "num_outputs": "1", 
        "op_attrs": ""
      }, 
      "inputs": [[292, 0, 0], [293, 0, 0]]
    }, 
    {
      "op": "cvm_op", 
      "name": "cvm_right_shift129", 
      "attrs": {
        "flatten_data": "1", 
        "func_name": "cvm_right_shift_23", 
        "num_inputs": "1", 
        "num_outputs": "1", 
        "op_attrs": ""
      }, 
      "inputs": [[294, 0, 0]]
    }, 
    {
      "op": "cvm_op", 
      "name": "cvm_clip69", 
      "attrs": {
        "flatten_data": "1", 
        "func_name": "cvm_clip_11", 
        "num_inputs": "1", 
        "num_outputs": "1", 
        "op_attrs": ""
      }, 
      "inputs": [[273, 0, 0]]
    }, 
    {
      "op": "null", 
      "name": "cifarresnetv20_stage3__plus2_in1_requant_scale", 
      "inputs": []
    }, 
    {
      "op": "cvm_op", 
      "name": "broadcast_mul98", 
      "attrs": {
        "flatten_data": "0", 
        "func_name": "broadcast_mul_3", 
        "num_inputs": "2", 
        "num_outputs": "1", 
        "op_attrs": ""
      }, 
      "inputs": [[296, 0, 0], [297, 0, 0]]
    }, 
    {
      "op": "cvm_op", 
      "name": "cvm_right_shift126", 
      "attrs": {
        "flatten_data": "1", 
        "func_name": "cvm_right_shift_22", 
        "num_inputs": "1", 
        "num_outputs": "1", 
        "op_attrs": ""
      }, 
      "inputs": [[298, 0, 0]]
    }, 
    {
      "op": "cvm_op", 
      "name": "elemwise_add17", 
      "attrs": {
        "flatten_data": "1", 
        "func_name": "elemwise_add_2", 
        "num_inputs": "2", 
        "num_outputs": "1", 
        "op_attrs": ""
      }, 
      "inputs": [[295, 0, 0], [299, 0, 0]]
    }, 
    {
      "op": "cvm_op", 
      "name": "cvm_clip72", 
      "attrs": {
        "flatten_data": "1", 
        "func_name": "cvm_clip_12", 
        "num_inputs": "1", 
        "num_outputs": "1", 
        "op_attrs": ""
      }, 
      "inputs": [[300, 0, 0]]
    }, 
    {
      "op": "null", 
      "name": "cifarresnetv20_stage3__plus2_requant_scale", 
      "inputs": []
    }, 
    {
      "op": "cvm_op", 
      "name": "broadcast_mul102", 
      "attrs": {
        "flatten_data": "0", 
        "func_name": "broadcast_mul_3", 
        "num_inputs": "2", 
        "num_outputs": "1", 
        "op_attrs": ""
      }, 
      "inputs": [[301, 0, 0], [302, 0, 0]]
    }, 
    {
      "op": "cvm_op", 
      "name": "cvm_right_shift130", 
      "attrs": {
        "flatten_data": "1", 
        "func_name": "cvm_right_shift_24", 
        "num_inputs": "1", 
        "num_outputs": "1", 
        "op_attrs": ""
      }, 
      "inputs": [[303, 0, 0]]
    }, 
    {
      "op": "null", 
      "name": "cifarresnetv20_bn_conv1_fwd_weight", 
      "inputs": []
    }, 
    {
      "op": "null", 
      "name": "cifarresnetv20_bn_conv1_fwd_bias", 
      "inputs": []
    }, 
    {
      "op": "cvm_op", 
      "name": "conv2d63", 
      "attrs": {
        "flatten_data": "0", 
        "func_name": "conv2d_14", 
        "num_inputs": "3", 
        "num_outputs": "1", 
        "op_attrs": ""
      }, 
      "inputs": [[304, 0, 0], [305, 0, 0], [306, 0, 0]]
    }, 
    {
      "op": "cvm_op", 
      "name": "cvm_clip73", 
      "attrs": {
        "flatten_data": "1", 
        "func_name": "cvm_clip_15", 
        "num_inputs": "1", 
        "num_outputs": "1", 
        "op_attrs": ""
      }, 
      "inputs": [[307, 0, 0]]
    }, 
    {
      "op": "null", 
      "name": "cifarresnetv20_bn_conv1_fwd_requant_scale", 
      "inputs": []
    }, 
    {
      "op": "cvm_op", 
      "name": "broadcast_mul103", 
      "attrs": {
        "flatten_data": "0", 
        "func_name": "broadcast_mul_3", 
        "num_inputs": "2", 
        "num_outputs": "1", 
        "op_attrs": ""
      }, 
      "inputs": [[308, 0, 0], [309, 0, 0]]
    }, 
    {
      "op": "cvm_op", 
      "name": "cvm_right_shift131", 
      "attrs": {
        "flatten_data": "1", 
        "func_name": "cvm_right_shift_17", 
        "num_inputs": "1", 
        "num_outputs": "1", 
        "op_attrs": ""
      }, 
      "inputs": [[310, 0, 0]]
    }, 
    {
      "op": "cvm_op", 
      "name": "relu37", 
      "attrs": {
        "flatten_data": "1", 
        "func_name": "relu_2", 
        "num_inputs": "1", 
        "num_outputs": "1", 
        "op_attrs": ""
      }, 
      "inputs": [[311, 0, 0]]
    }, 
    {
      "op": "cvm_op", 
      "name": "sum1", 
      "attrs": {
        "flatten_data": "0", 
        "func_name": "sum", 
        "num_inputs": "1", 
        "num_outputs": "1", 
        "op_attrs": ""
      }, 
      "inputs": [[312, 0, 0]]
    }, 
    {
      "op": "cvm_op", 
      "name": "cvm_right_shift132", 
      "attrs": {
        "flatten_data": "1", 
        "func_name": "cvm_right_shift_25", 
        "num_inputs": "1", 
        "num_outputs": "1", 
        "op_attrs": ""
      }, 
      "inputs": [[313, 0, 0]]
    }, 
    {
      "op": "null", 
      "name": "sum0_requant_scale", 
      "inputs": []
    }, 
    {
      "op": "cvm_op", 
      "name": "broadcast_mul104", 
      "attrs": {
        "flatten_data": "0", 
        "func_name": "broadcast_mul_4", 
        "num_inputs": "2", 
        "num_outputs": "1", 
        "op_attrs": ""
      }, 
      "inputs": [[314, 0, 0], [315, 0, 0]]
    }, 
    {
      "op": "cvm_op", 
      "name": "cvm_right_shift133", 
      "attrs": {
        "flatten_data": "1", 
        "func_name": "cvm_right_shift_26", 
        "num_inputs": "1", 
        "num_outputs": "1", 
        "op_attrs": ""
      }, 
      "inputs": [[316, 0, 0]]
    }, 
    {
      "op": "null", 
      "name": "cifarresnetv20_relu0_fwd_avg_scale", 
      "inputs": []
    }, 
    {
      "op": "cvm_op", 
      "name": "broadcast_mul105", 
      "attrs": {
        "flatten_data": "0", 
        "func_name": "broadcast_mul_4", 
        "num_inputs": "2", 
        "num_outputs": "1", 
        "op_attrs": ""
      }, 
      "inputs": [[317, 0, 0], [318, 0, 0]]
    }, 
    {
      "op": "cvm_op", 
      "name": "cvm_clip74", 
      "attrs": {
        "flatten_data": "1", 
        "func_name": "cvm_clip_16", 
        "num_inputs": "1", 
        "num_outputs": "1", 
        "op_attrs": ""
      }, 
      "inputs": [[319, 0, 0]]
    }, 
    {
      "op": "null", 
      "name": "broadcast_mul0_requant_scale", 
      "inputs": []
    }, 
    {
      "op": "cvm_op", 
      "name": "broadcast_mul106", 
      "attrs": {
        "flatten_data": "0", 
        "func_name": "broadcast_mul_4", 
        "num_inputs": "2", 
        "num_outputs": "1", 
        "op_attrs": ""
      }, 
      "inputs": [[320, 0, 0], [321, 0, 0]]
    }, 
    {
      "op": "cvm_op", 
      "name": "cvm_right_shift134", 
      "attrs": {
        "flatten_data": "1", 
        "func_name": "cvm_right_shift_27", 
        "num_inputs": "1", 
        "num_outputs": "1", 
        "op_attrs": ""
      }, 
      "inputs": [[322, 0, 0]]
    }, 
    {
      "op": "cvm_op", 
      "name": "flatten2", 
      "attrs": {
        "flatten_data": "0", 
        "func_name": "flatten", 
        "num_inputs": "1", 
        "num_outputs": "1", 
        "op_attrs": ""
      }, 
      "inputs": [[323, 0, 0]]
    }, 
    {
      "op": "cvm_op", 
      "name": "flatten3", 
      "attrs": {
        "flatten_data": "0", 
        "func_name": "flatten", 
        "num_inputs": "1", 
        "num_outputs": "1", 
        "op_attrs": ""
      }, 
      "inputs": [[324, 0, 0]]
    }, 
    {
      "op": "null", 
      "name": "cifarresnetv20_dense0_weight", 
      "inputs": []
    }, 
    {
      "op": "null", 
      "name": "cifarresnetv20_dense0_bias", 
      "inputs": []
    }, 
    {
      "op": "cvm_op", 
      "name": "dense1", 
      "attrs": {
        "flatten_data": "0", 
        "func_name": "dense", 
        "num_inputs": "3", 
        "num_outputs": "1", 
        "op_attrs": ""
      }, 
      "inputs": [[325, 0, 0], [326, 0, 0], [327, 0, 0]]
    }, 
    {
      "op": "cvm_op", 
      "name": "cvm_clip75", 
      "attrs": {
        "flatten_data": "1", 
        "func_name": "cvm_clip_17", 
        "num_inputs": "1", 
        "num_outputs": "1", 
        "op_attrs": ""
      }, 
      "inputs": [[328, 0, 0]]
    }, 
    {
      "op": "null", 
      "name": "cifarresnetv20_dense0_fwd_requant_scale", 
      "inputs": []
    }, 
    {
      "op": "cvm_op", 
      "name": "broadcast_mul107", 
      "attrs": {
        "flatten_data": "0", 
        "func_name": "broadcast_mul_5", 
        "num_inputs": "2", 
        "num_outputs": "1", 
        "op_attrs": ""
      }, 
      "inputs": [[329, 0, 0], [330, 0, 0]]
    }, 
    {
      "op": "cvm_op", 
      "name": "cvm_right_shift135", 
      "attrs": {
        "flatten_data": "1", 
        "func_name": "cvm_right_shift_28", 
        "num_inputs": "1", 
        "num_outputs": "1", 
        "op_attrs": ""
      }, 
      "inputs": [[331, 0, 0]]
    }
  ], 
  "arg_nodes": [
    0, 
    1, 
    2, 
    5, 
    8, 
    9, 
    12, 
    16, 
    17, 
    20, 
    24, 
    27, 
    31, 
    34, 
    37, 
    42, 
    45, 
    46, 
    49, 
    53, 
    54, 
    57, 
    61, 
    64, 
    68, 
    73, 
    76, 
    77, 
    80, 
    84, 
    85, 
    88, 
    92, 
    95, 
    99, 
    104, 
    107, 
    108, 
    111, 
    115, 
    116, 
    119, 
    123, 
    126, 
    130, 
    133, 
    136, 
    141, 
    144, 
    145, 
    148, 
    152, 
    153, 
    156, 
    160, 
    163, 
    167, 
    172, 
    175, 
    176, 
    179, 
    183, 
    184, 
    187, 
    191, 
    194, 
    198, 
    203, 
    206, 
    207, 
    210, 
    214, 
    215, 
    218, 
    222, 
    225, 
    228, 
    231, 
    235, 
    240, 
    243, 
    244, 
    247, 
    251, 
    252, 
    255, 
    259, 
    262, 
    266, 
    271, 
    274, 
    275, 
    278, 
    282, 
    283, 
    286, 
    290, 
    293, 
    297, 
    302, 
    305, 
    306, 
    309, 
    315, 
    318, 
    321, 
    326, 
    327, 
    330
  ], 
  "node_row_ptr": [
    0, 
    1, 
    2, 
    3, 
    4, 
    5, 
    6, 
    7, 
    8, 
    9, 
    10, 
    11, 
    12, 
    13, 
    14, 
    15, 
    16, 
    17, 
    18, 
    19, 
    20, 
    21, 
    22, 
    23, 
    24, 
    25, 
    26, 
    27, 
    28, 
    29, 
    30, 
    31, 
    32, 
    33, 
    34, 
    35, 
    36, 
    37, 
    38, 
    39, 
    40, 
    41, 
    42, 
    43, 
    44, 
    45, 
    46, 
    47, 
    48, 
    49, 
    50, 
    51, 
    52, 
    53, 
    54, 
    55, 
    56, 
    57, 
    58, 
    59, 
    60, 
    61, 
    62, 
    63, 
    64, 
    65, 
    66, 
    67, 
    68, 
    69, 
    70, 
    71, 
    72, 
    73, 
    74, 
    75, 
    76, 
    77, 
    78, 
    79, 
    80, 
    81, 
    82, 
    83, 
    84, 
    85, 
    86, 
    87, 
    88, 
    89, 
    90, 
    91, 
    92, 
    93, 
    94, 
    95, 
    96, 
    97, 
    98, 
    99, 
    100, 
    101, 
    102, 
    103, 
    104, 
    105, 
    106, 
    107, 
    108, 
    109, 
    110, 
    111, 
    112, 
    113, 
    114, 
    115, 
    116, 
    117, 
    118, 
    119, 
    120, 
    121, 
    122, 
    123, 
    124, 
    125, 
    126, 
    127, 
    128, 
    129, 
    130, 
    131, 
    132, 
    133, 
    134, 
    135, 
    136, 
    137, 
    138, 
    139, 
    140, 
    141, 
    142, 
    143, 
    144, 
    145, 
    146, 
    147, 
    148, 
    149, 
    150, 
    151, 
    152, 
    153, 
    154, 
    155, 
    156, 
    157, 
    158, 
    159, 
    160, 
    161, 
    162, 
    163, 
    164, 
    165, 
    166, 
    167, 
    168, 
    169, 
    170, 
    171, 
    172, 
    173, 
    174, 
    175, 
    176, 
    177, 
    178, 
    179, 
    180, 
    181, 
    182, 
    183, 
    184, 
    185, 
    186, 
    187, 
    188, 
    189, 
    190, 
    191, 
    192, 
    193, 
    194, 
    195, 
    196, 
    197, 
    198, 
    199, 
    200, 
    201, 
    202, 
    203, 
    204, 
    205, 
    206, 
    207, 
    208, 
    209, 
    210, 
    211, 
    212, 
    213, 
    214, 
    215, 
    216, 
    217, 
    218, 
    219, 
    220, 
    221, 
    222, 
    223, 
    224, 
    225, 
    226, 
    227, 
    228, 
    229, 
    230, 
    231, 
    232, 
    233, 
    234, 
    235, 
    236, 
    237, 
    238, 
    239, 
    240, 
    241, 
    242, 
    243, 
    244, 
    245, 
    246, 
    247, 
    248, 
    249, 
    250, 
    251, 
    252, 
    253, 
    254, 
    255, 
    256, 
    257, 
    258, 
    259, 
    260, 
    261, 
    262, 
    263, 
    264, 
    265, 
    266, 
    267, 
    268, 
    269, 
    270, 
    271, 
    272, 
    273, 
    274, 
    275, 
    276, 
    277, 
    278, 
    279, 
    280, 
    281, 
    282, 
    283, 
    284, 
    285, 
    286, 
    287, 
    288, 
    289, 
    290, 
    291, 
    292, 
    293, 
    294, 
    295, 
    296, 
    297, 
    298, 
    299, 
    300, 
    301, 
    302, 
    303, 
    304, 
    305, 
    306, 
    307, 
    308, 
    309, 
    310, 
    311, 
    312, 
    313, 
    314, 
    315, 
    316, 
    317, 
    318, 
    319, 
    320, 
    321, 
    322, 
    323, 
    324, 
    325, 
    326, 
    327, 
    328, 
    329, 
    330, 
    331, 
    332, 
    333
  ], 
  "heads": [[332, 0, 0]], 
  "attrs": {
    "storage_id": ["list_int", [
        5, 
        6, 
        7, 
        0, 
        1, 
        8, 
        0, 
        1, 
        9, 
        10, 
        0, 
        2, 
        11, 
        0, 
        2, 
        0, 
        12, 
        13, 
        2, 
        0, 
        14, 
        2, 
        0, 
        2, 
        15, 
        0, 
        2, 
        16, 
        0, 
        2, 
        0, 
        17, 
        2, 
        0, 
        18, 
        2, 
        1, 
        19, 
        2, 
        1, 
        2, 
        0, 
        20, 
        1, 
        2, 
        21, 
        22, 
        0, 
        1, 
        23, 
        0, 
        1, 
        0, 
        24, 
        25, 
        1, 
        0, 
        26, 
        1, 
        0, 
        1, 
        27, 
        0, 
        1, 
        28, 
        0, 
        1, 
        0, 
        29, 
        1, 
        0, 
        1, 
        0, 
        30, 
        2, 
        1, 
        31, 
        32, 
        0, 
        2, 
        33, 
        0, 
        2, 
        0, 
        34, 
        35, 
        2, 
        0, 
        36, 
        2, 
        0, 
        2, 
        37, 
        0, 
        2, 
        38, 
        0, 
        2, 
        0, 
        39, 
        2, 
        0, 
        2, 
        0, 
        40, 
        1, 
        2, 
        41, 
        42, 
        0, 
        1, 
        43, 
        0, 
        1, 
        0, 
        44, 
        45, 
        1, 
        0, 
        46, 
        1, 
        0, 
        1, 
        47, 
        0, 
        1, 
        48, 
        0, 
        1, 
        0, 
        49, 
        1, 
        0, 
        50, 
        1, 
        2, 
        51, 
        1, 
        2, 
        1, 
        0, 
        52, 
        2, 
        1, 
        53, 
        54, 
        0, 
        2, 
        55, 
        0, 
        2, 
        0, 
        56, 
        57, 
        2, 
        0, 
        58, 
        2, 
        0, 
        2, 
        59, 
        0, 
        2, 
        60, 
        0, 
        2, 
        0, 
        61, 
        2, 
        0, 
        2, 
        0, 
        62, 
        1, 
        2, 
        63, 
        64, 
        0, 
        1, 
        65, 
        0, 
        1, 
        0, 
        66, 
        67, 
        1, 
        0, 
        68, 
        1, 
        0, 
        1, 
        69, 
        0, 
        1, 
        70, 
        0, 
        1, 
        0, 
        71, 
        1, 
        0, 
        1, 
        0, 
        72, 
        2, 
        1, 
        73, 
        74, 
        0, 
        2, 
        75, 
        0, 
        2, 
        0, 
        76, 
        77, 
        2, 
        0, 
        78, 
        2, 
        0, 
        2, 
        79, 
        0, 
        2, 
        80, 
        0, 
        2, 
        81, 
        0, 
        1, 
        82, 
        0, 
        1, 
        0, 
        83, 
        1, 
        0, 
        1, 
        2, 
        84, 
        0, 
        1, 
        85, 
        86, 
        2, 
        0, 
        87, 
        2, 
        0, 
        2, 
        88, 
        89, 
        0, 
        2, 
        90, 
        0, 
        2, 
        0, 
        91, 
        2, 
        0, 
        92, 
        2, 
        0, 
        2, 
        93, 
        1, 
        2, 
        1, 
        0, 
        94, 
        2, 
        1, 
        95, 
        96, 
        0, 
        2, 
        97, 
        0, 
        2, 
        0, 
        98, 
        99, 
        2, 
        0, 
        100, 
        2, 
        0, 
        2, 
        101, 
        0, 
        2, 
        102, 
        0, 
        2, 
        0, 
        103, 
        1, 
        0, 
        1, 
        2, 
        104, 
        0, 
        1, 
        105, 
        106, 
        2, 
        0, 
        107, 
        1, 
        2, 
        0, 
        3, 
        4, 
        108, 
        3, 
        4, 
        109, 
        3, 
        4, 
        110, 
        3, 
        4, 
        3, 
        4, 
        111, 
        112, 
        3, 
        4, 
        113, 
        3, 
        4]], 
    "dtype": ["list_int", [
        4, 
        4, 
        4, 
        4, 
        4, 
        4, 
        4, 
        4, 
        4, 
        4, 
        4, 
        4, 
        4, 
        4, 
        4, 
        4, 
        4, 
        4, 
        4, 
        4, 
        4, 
        4, 
        4, 
        4, 
        4, 
        4, 
        4, 
        4, 
        4, 
        4, 
        4, 
        4, 
        4, 
        4, 
        4, 
        4, 
        4, 
        4, 
        4, 
        4, 
        4, 
        4, 
        4, 
        4, 
        4, 
        4, 
        4, 
        4, 
        4, 
        4, 
        4, 
        4, 
        4, 
        4, 
        4, 
        4, 
        4, 
        4, 
        4, 
        4, 
        4, 
        4, 
        4, 
        4, 
        4, 
        4, 
        4, 
        4, 
        4, 
        4, 
        4, 
        4, 
        4, 
        4, 
        4, 
        4, 
        4, 
        4, 
        4, 
        4, 
        4, 
        4, 
        4, 
        4, 
        4, 
        4, 
        4, 
        4, 
        4, 
        4, 
        4, 
        4, 
        4, 
        4, 
        4, 
        4, 
        4, 
        4, 
        4, 
        4, 
        4, 
        4, 
        4, 
        4, 
        4, 
        4, 
        4, 
        4, 
        4, 
        4, 
        4, 
        4, 
        4, 
        4, 
        4, 
        4, 
        4, 
        4, 
        4, 
        4, 
        4, 
        4, 
        4, 
        4, 
        4, 
        4, 
        4, 
        4, 
        4, 
        4, 
        4, 
        4, 
        4, 
        4, 
        4, 
        4, 
        4, 
        4, 
        4, 
        4, 
        4, 
        4, 
        4, 
        4, 
        4, 
        4, 
        4, 
        4, 
        4, 
        4, 
        4, 
        4, 
        4, 
        4, 
        4, 
        4, 
        4, 
        4, 
        4, 
        4, 
        4, 
        4, 
        4, 
        4, 
        4, 
        4, 
        4, 
        4, 
        4, 
        4, 
        4, 
        4, 
        4, 
        4, 
        4, 
        4, 
        4, 
        4, 
        4, 
        4, 
        4, 
        4, 
        4, 
        4, 
        4, 
        4, 
        4, 
        4, 
        4, 
        4, 
        4, 
        4, 
        4, 
        4, 
        4, 
        4, 
        4, 
        4, 
        4, 
        4, 
        4, 
        4, 
        4, 
        4, 
        4, 
        4, 
        4, 
        4, 
        4, 
        4, 
        4, 
        4, 
        4, 
        4, 
        4, 
        4, 
        4, 
        4, 
        4, 
        4, 
        4, 
        4, 
        4, 
        4, 
        4, 
        4, 
        4, 
        4, 
        4, 
        4, 
        4, 
        4, 
        4, 
        4, 
        4, 
        4, 
        4, 
        4, 
        4, 
        4, 
        4, 
        4, 
        4, 
        4, 
        4, 
        4, 
        4, 
        4, 
        4, 
        4, 
        4, 
        4, 
        4, 
        4, 
        4, 
        4, 
        4, 
        4, 
        4, 
        4, 
        4, 
        4, 
        4, 
        4, 
        4, 
        4, 
        4, 
        4, 
        4, 
        4, 
        4, 
        4, 
        4, 
        4, 
        4, 
        4, 
        4, 
        4, 
        4, 
        4, 
        4, 
        4, 
        4, 
        4, 
        4, 
        4, 
        4, 
        4, 
        4, 
        4, 
        4, 
        4, 
        4, 
        4, 
        4, 
        4, 
        4, 
        4, 
        4, 
        4, 
        4, 
        4, 
        4, 
        4, 
        4, 
        4, 
        4, 
        4, 
        4, 
        4, 
        4, 
        4, 
        4, 
        4, 
        4, 
        4, 
        4, 
        4, 
        4, 
        4, 
        4, 
        4, 
        4, 
        4, 
        4, 
        4, 
        4, 
        4, 
        4, 
        4, 
        4, 
        4, 
        4]], 
    "precision": ["list_int", [
        8, 
        8, 
        31, 
        -1, 
        15, 
        17, 
        -1, 
        8, 
        8, 
        31, 
        -1, 
        16, 
        16, 
        -1, 
        8, 
        -1, 
        8, 
        31, 
        -1, 
        16, 
        16, 
        -1, 
        8, 
        -1, 
        8, 
        -1, 
        16, 
        16, 
        -1, 
        8, 
        8, 
        24, 
        -1, 
        8, 
        8, 
        -1, 
        17, 
        14, 
        -1, 
        8, 
        -1, 
        8, 
        24, 
        -1, 
        8, 
        8, 
        31, 
        -1, 
        14, 
        14, 
        -1, 
        8, 
        -1, 
        8, 
        31, 
        -1, 
        16, 
        16, 
        -1, 
        8, 
        -1, 
        8, 
        -1, 
        16, 
        13, 
        -1, 
        8, 
        8, 
        22, 
        -1, 
        8, 
        -1, 
        9, 
        20, 
        -1, 
        8, 
        8, 
        31, 
        -1, 
        15, 
        13, 
        -1, 
        8, 
        -1, 
        8, 
        31, 
        -1, 
        15, 
        17, 
        -1, 
        8, 
        -1, 
        8, 
        -1, 
        17, 
        15, 
        -1, 
        8, 
        8, 
        24, 
        -1, 
        8, 
        -1, 
        9, 
        22, 
        -1, 
        8, 
        8, 
        31, 
        -1, 
        15, 
        17, 
        -1, 
        8, 
        -1, 
        8, 
        31, 
        -1, 
        16, 
        15, 
        -1, 
        8, 
        -1, 
        8, 
        -1, 
        17, 
        15, 
        -1, 
        8, 
        8, 
        24, 
        -1, 
        8, 
        8, 
        -1, 
        15, 
        17, 
        -1, 
        8, 
        -1, 
        8, 
        24, 
        -1, 
        8, 
        8, 
        31, 
        -1, 
        15, 
        17, 
        -1, 
        8, 
        -1, 
        8, 
        31, 
        -1, 
        17, 
        15, 
        -1, 
        8, 
        -1, 
        8, 
        -1, 
        16, 
        16, 
        -1, 
        8, 
        8, 
        24, 
        -1, 
        8, 
        -1, 
        8, 
        24, 
        -1, 
        8, 
        8, 
        31, 
        -1, 
        15, 
        16, 
        -1, 
        8, 
        -1, 
        8, 
        31, 
        -1, 
        15, 
        17, 
        -1, 
        8, 
        -1, 
        8, 
        -1, 
        15, 
        17, 
        -1, 
        8, 
        8, 
        24, 
        -1, 
        8, 
        -1, 
        8, 
        24, 
        -1, 
        8, 
        8, 
        31, 
        -1, 
        15, 
        17, 
        -1, 
        8, 
        -1, 
        8, 
        31, 
        -1, 
        17, 
        11, 
        -1, 
        8, 
        -1, 
        8, 
        -1, 
        17, 
        15, 
        -1, 
        8, 
        8, 
        -1, 
        15, 
        17, 
        -1, 
        8, 
        8, 
        23, 
        -1, 
        8, 
        -1, 
        8, 
        24, 
        -1, 
        8, 
        8, 
        31, 
        -1, 
        14, 
        18, 
        -1, 
        8, 
        -1, 
        8, 
        31, 
        -1, 
        17, 
        15, 
        -1, 
        8, 
        -1, 
        8, 
        -1, 
        16, 
        16, 
        -1, 
        8, 
        8, 
        24, 
        -1, 
        8, 
        -1, 
        9, 
        23, 
        -1, 
        8, 
        8, 
        31, 
        -1, 
        14, 
        18, 
        -1, 
        8, 
        -1, 
        8, 
        31, 
        -1, 
        16, 
        16, 
        -1, 
        8, 
        -1, 
        8, 
        -1, 
        18, 
        12, 
        -1, 
        8, 
        8, 
        24, 
        -1, 
        8, 
        -1, 
        9, 
        22, 
        -1, 
        8, 
        8, 
        31, 
        -1, 
        15, 
        17, 
        -1, 
        8, 
        -1, 
        -1, 
        12, 
        20, 
        -1, 
        8, 
        8, 
        -1, 
        15, 
        16, 
        -1, 
        8, 
        -1, 
        -1, 
        8, 
        31, 
        -1, 
        16, 
        16, 
        -1, 
        8]], 
    "op_attrs": ["list_str", [
        "", 
        "", 
        "", 
        "{\"strides\": \"(1, 1)\", \"use_bias\": \"True\", \"padding\": \"(0, 0)\", \"groups\": \"3\", \"dilation\": \"(1, 1)\", \"channels\": \"3\", \"layout\": \"NCHW\", \"kernel_layout\": \"OIHW\", \"kernel_size\": \"[1, 1]\"}", 
        "{\"shift_bit\": \"1\", \"precision\": \"15\"}", 
        "", 
        "{}", 
        "{\"shift_bit\": \"22\", \"precision\": \"8\"}", 
        "", 
        "", 
        "{\"strides\": \"(1, 1)\", \"use_bias\": \"True\", \"padding\": \"(1, 1)\", \"groups\": \"1\", \"dilation\": \"(1, 1)\", \"channels\": \"16\", \"layout\": \"NCHW\", \"kernel_layout\": \"OIHW\", \"kernel_size\": \"[3, 3]\"}", 
        "{\"precision\": \"16\"}", 
        "", 
        "{}", 
        "{\"shift_bit\": \"22\", \"precision\": \"8\"}", 
        "{}", 
        "", 
        "", 
        "{\"strides\": \"(1, 1)\", \"use_bias\": \"True\", \"padding\": \"(1, 1)\", \"groups\": \"1\", \"dilation\": \"(1, 1)\", \"channels\": \"16\", \"layout\": \"NCHW\", \"kernel_layout\": \"OIHW\", \"kernel_size\": \"[3, 3]\"}", 
        "{\"shift_bit\": \"1\", \"precision\": \"16\"}", 
        "", 
        "{}", 
        "{\"shift_bit\": \"22\", \"precision\": \"8\"}", 
        "{}", 
        "", 
        "{\"strides\": \"(1, 1)\", \"use_bias\": \"False\", \"padding\": \"(1, 1)\", \"groups\": \"1\", \"dilation\": \"(1, 1)\", \"channels\": \"16\", \"layout\": \"NCHW\", \"kernel_layout\": \"OIHW\", \"kernel_size\": \"[3, 3]\"}", 
        "{\"shift_bit\": \"1\", \"precision\": \"16\"}", 
        "", 
        "{}", 
        "{\"shift_bit\": \"22\", \"precision\": \"8\"}", 
        "{\"precision\": \"8\"}", 
        "", 
        "{}", 
        "{\"shift_bit\": \"23\", \"precision\": \"8\"}", 
        "", 
        "{\"strides\": \"(1, 1)\", \"use_bias\": \"False\", \"padding\": \"(1, 1)\", \"groups\": \"1\", \"dilation\": \"(1, 1)\", \"channels\": \"16\", \"layout\": \"NCHW\", \"kernel_layout\": \"OIHW\", \"kernel_size\": \"[3, 3]\"}", 
        "{\"precision\": \"17\"}", 
        "", 
        "{}", 
        "{\"shift_bit\": \"21\", \"precision\": \"8\"}", 
        "{}", 
        "{\"shift_bit\": \"1\", \"precision\": \"8\"}", 
        "", 
        "{}", 
        "{\"shift_bit\": \"22\", \"precision\": \"8\"}", 
        "", 
        "", 
        "{\"strides\": \"(1, 1)\", \"use_bias\": \"True\", \"padding\": \"(0, 0)\", \"groups\": \"16\", \"dilation\": \"(1, 1)\", \"channels\": \"16\", \"layout\": \"NCHW\", \"kernel_layout\": \"OIHW\", \"kernel_size\": \"[1, 1]\"}", 
        "{\"precision\": \"14\"}", 
        "", 
        "{}", 
        "{\"shift_bit\": \"18\", \"precision\": \"8\"}", 
        "{}", 
        "", 
        "", 
        "{\"strides\": \"(1, 1)\", \"use_bias\": \"True\", \"padding\": \"(1, 1)\", \"groups\": \"1\", \"dilation\": \"(1, 1)\", \"channels\": \"16\", \"layout\": \"NCHW\", \"kernel_layout\": \"OIHW\", \"kernel_size\": \"[3, 3]\"}", 
        "{\"shift_bit\": \"1\", \"precision\": \"16\"}", 
        "", 
        "{}", 
        "{\"shift_bit\": \"22\", \"precision\": \"8\"}", 
        "{}", 
        "", 
        "{\"strides\": \"(1, 1)\", \"use_bias\": \"False\", \"padding\": \"(1, 1)\", \"groups\": \"1\", \"dilation\": \"(1, 1)\", \"channels\": \"16\", \"layout\": \"NCHW\", \"kernel_layout\": \"OIHW\", \"kernel_size\": \"[3, 3]\"}", 
        "{\"precision\": \"16\"}", 
        "", 
        "{}", 
        "{\"shift_bit\": \"19\", \"precision\": \"8\"}", 
        "{\"precision\": \"8\"}", 
        "", 
        "{}", 
        "{\"shift_bit\": \"22\", \"precision\": \"8\"}", 
        "{}", 
        "{\"precision\": \"9\"}", 
        "", 
        "{}", 
        "{\"shift_bit\": \"19\", \"precision\": \"8\"}", 
        "", 
        "", 
        "{\"strides\": \"(1, 1)\", \"use_bias\": \"True\", \"padding\": \"(0, 0)\", \"groups\": \"16\", \"dilation\": \"(1, 1)\", \"channels\": \"16\", \"layout\": \"NCHW\", \"kernel_layout\": \"OIHW\", \"kernel_size\": \"[1, 1]\"}", 
        "{\"precision\": \"15\"}", 
        "", 
        "{}", 
        "{\"shift_bit\": \"18\", \"precision\": \"8\"}", 
        "{}", 
        "", 
        "", 
        "{\"strides\": \"(1, 1)\", \"use_bias\": \"True\", \"padding\": \"(1, 1)\", \"groups\": \"1\", \"dilation\": \"(1, 1)\", \"channels\": \"16\", \"layout\": \"NCHW\", \"kernel_layout\": \"OIHW\", \"kernel_size\": \"[3, 3]\"}", 
        "{\"shift_bit\": \"1\", \"precision\": \"15\"}", 
        "", 
        "{}", 
        "{\"shift_bit\": \"22\", \"precision\": \"8\"}", 
        "{}", 
        "", 
        "{\"strides\": \"(1, 1)\", \"use_bias\": \"False\", \"padding\": \"(1, 1)\", \"groups\": \"1\", \"dilation\": \"(1, 1)\", \"channels\": \"16\", \"layout\": \"NCHW\", \"kernel_layout\": \"OIHW\", \"kernel_size\": \"[3, 3]\"}", 
        "{\"precision\": \"17\"}", 
        "", 
        "{}", 
        "{\"shift_bit\": \"22\", \"precision\": \"8\"}", 
        "{\"precision\": \"8\"}", 
        "", 
        "{}", 
        "{\"shift_bit\": \"23\", \"precision\": \"8\"}", 
        "{}", 
        "{\"precision\": \"9\"}", 
        "", 
        "{}", 
        "{\"shift_bit\": \"21\", \"precision\": \"8\"}", 
        "", 
        "", 
        "{\"strides\": \"(1, 1)\", \"use_bias\": \"True\", \"padding\": \"(0, 0)\", \"groups\": \"16\", \"dilation\": \"(1, 1)\", \"channels\": \"16\", \"layout\": \"NCHW\", \"kernel_layout\": \"OIHW\", \"kernel_size\": \"[1, 1]\"}", 
        "{\"precision\": \"15\"}", 
        "", 
        "{}", 
        "{\"shift_bit\": \"22\", \"precision\": \"8\"}", 
        "{}", 
        "", 
        "", 
        "{\"strides\": \"(2, 2)\", \"use_bias\": \"True\", \"padding\": \"(1, 1)\", \"groups\": \"1\", \"dilation\": \"(1, 1)\", \"channels\": \"32\", \"layout\": \"NCHW\", \"kernel_layout\": \"OIHW\", \"kernel_size\": \"[3, 3]\"}", 
        "{\"precision\": \"16\"}", 
        "", 
        "{}", 
        "{\"shift_bit\": \"21\", \"precision\": \"8\"}", 
        "{}", 
        "", 
        "{\"strides\": \"(1, 1)\", \"use_bias\": \"False\", \"padding\": \"(1, 1)\", \"groups\": \"1\", \"dilation\": \"(1, 1)\", \"channels\": \"32\", \"layout\": \"NCHW\", \"kernel_layout\": \"OIHW\", \"kernel_size\": \"[3, 3]\"}", 
        "{\"precision\": \"17\"}", 
        "", 
        "{}", 
        "{\"shift_bit\": \"22\", \"precision\": \"8\"}", 
        "{\"precision\": \"8\"}", 
        "", 
        "{}", 
        "{\"shift_bit\": \"23\", \"precision\": \"8\"}", 
        "", 
        "{\"strides\": \"(2, 2)\", \"use_bias\": \"False\", \"padding\": \"(0, 0)\", \"groups\": \"1\", \"dilation\": \"(1, 1)\", \"channels\": \"32\", \"layout\": \"NCHW\", \"kernel_layout\": \"OIHW\", \"kernel_size\": \"[1, 1]\"}", 
        "{\"precision\": \"15\"}", 
        "", 
        "{}", 
        "{\"shift_bit\": \"22\", \"precision\": \"8\"}", 
        "{}", 
        "{\"precision\": \"8\"}", 
        "", 
        "{}", 
        "{\"shift_bit\": \"22\", \"precision\": \"8\"}", 
        "", 
        "", 
        "{\"strides\": \"(1, 1)\", \"use_bias\": \"True\", \"padding\": \"(0, 0)\", \"groups\": \"32\", \"dilation\": \"(1, 1)\", \"channels\": \"32\", \"layout\": \"NCHW\", \"kernel_layout\": \"OIHW\", \"kernel_size\": \"[1, 1]\"}", 
        "{\"precision\": \"15\"}", 
        "", 
        "{}", 
        "{\"shift_bit\": \"22\", \"precision\": \"8\"}", 
        "{}", 
        "", 
        "", 
        "{\"strides\": \"(1, 1)\", \"use_bias\": \"True\", \"padding\": \"(1, 1)\", \"groups\": \"1\", \"dilation\": \"(1, 1)\", \"channels\": \"32\", \"layout\": \"NCHW\", \"kernel_layout\": \"OIHW\", \"kernel_size\": \"[3, 3]\"}", 
        "{\"precision\": \"17\"}", 
        "", 
        "{}", 
        "{\"shift_bit\": \"22\", \"precision\": \"8\"}", 
        "{}", 
        "", 
        "{\"strides\": \"(1, 1)\", \"use_bias\": \"False\", \"padding\": \"(1, 1)\", \"groups\": \"1\", \"dilation\": \"(1, 1)\", \"channels\": \"32\", \"layout\": \"NCHW\", \"kernel_layout\": \"OIHW\", \"kernel_size\": \"[3, 3]\"}", 
        "{\"precision\": \"16\"}", 
        "", 
        "{}", 
        "{\"shift_bit\": \"22\", \"precision\": \"8\"}", 
        "{\"precision\": \"8\"}", 
        "", 
        "{}", 
        "{\"shift_bit\": \"24\", \"precision\": \"8\"}", 
        "{}", 
        "{\"precision\": \"8\"}", 
        "", 
        "{}", 
        "{\"shift_bit\": \"22\", \"precision\": \"8\"}", 
        "", 
        "", 
        "{\"strides\": \"(1, 1)\", \"use_bias\": \"True\", \"padding\": \"(0, 0)\", \"groups\": \"32\", \"dilation\": \"(1, 1)\", \"channels\": \"32\", \"layout\": \"NCHW\", \"kernel_layout\": \"OIHW\", \"kernel_size\": \"[1, 1]\"}", 
        "{\"precision\": \"15\"}", 
        "", 
        "{}", 
        "{\"shift_bit\": \"22\", \"precision\": \"8\"}", 
        "{}", 
        "", 
        "", 
        "{\"strides\": \"(1, 1)\", \"use_bias\": \"True\", \"padding\": \"(1, 1)\", \"groups\": \"1\", \"dilation\": \"(1, 1)\", \"channels\": \"32\", \"layout\": \"NCHW\", \"kernel_layout\": \"OIHW\", \"kernel_size\": \"[3, 3]\"}", 
        "{\"shift_bit\": \"1\", \"precision\": \"15\"}", 
        "", 
        "{}", 
        "{\"shift_bit\": \"22\", \"precision\": \"8\"}", 
        "{}", 
        "", 
        "{\"strides\": \"(1, 1)\", \"use_bias\": \"False\", \"padding\": \"(1, 1)\", \"groups\": \"1\", \"dilation\": \"(1, 1)\", \"channels\": \"32\", \"layout\": \"NCHW\", \"kernel_layout\": \"OIHW\", \"kernel_size\": \"[3, 3]\"}", 
        "{\"shift_bit\": \"1\", \"precision\": \"15\"}", 
        "", 
        "{}", 
        "{\"shift_bit\": \"22\", \"precision\": \"8\"}", 
        "{\"precision\": \"8\"}", 
        "", 
        "{}", 
        "{\"shift_bit\": \"23\", \"precision\": \"8\"}", 
        "{}", 
        "{\"shift_bit\": \"1\", \"precision\": \"8\"}", 
        "", 
        "{}", 
        "{\"shift_bit\": \"22\", \"precision\": \"8\"}", 
        "", 
        "", 
        "{\"strides\": \"(1, 1)\", \"use_bias\": \"True\", \"padding\": \"(0, 0)\", \"groups\": \"32\", \"dilation\": \"(1, 1)\", \"channels\": \"32\", \"layout\": \"NCHW\", \"kernel_layout\": \"OIHW\", \"kernel_size\": \"[1, 1]\"}", 
        "{\"precision\": \"15\"}", 
        "", 
        "{}", 
        "{\"shift_bit\": \"22\", \"precision\": \"8\"}", 
        "{}", 
        "", 
        "", 
        "{\"strides\": \"(2, 2)\", \"use_bias\": \"True\", \"padding\": \"(1, 1)\", \"groups\": \"1\", \"dilation\": \"(1, 1)\", \"channels\": \"64\", \"layout\": \"NCHW\", \"kernel_layout\": \"OIHW\", \"kernel_size\": \"[3, 3]\"}", 
        "{\"precision\": \"17\"}", 
        "", 
        "{}", 
        "{\"shift_bit\": \"19\", \"precision\": \"8\"}", 
        "{}", 
        "", 
        "{\"strides\": \"(1, 1)\", \"use_bias\": \"False\", \"padding\": \"(1, 1)\", \"groups\": \"1\", \"dilation\": \"(1, 1)\", \"channels\": \"64\", \"layout\": \"NCHW\", \"kernel_layout\": \"OIHW\", \"kernel_size\": \"[3, 3]\"}", 
        "{\"precision\": \"17\"}", 
        "", 
        "{}", 
        "{\"shift_bit\": \"22\", \"precision\": \"8\"}", 
        "", 
        "{\"strides\": \"(2, 2)\", \"use_bias\": \"False\", \"padding\": \"(0, 0)\", \"groups\": \"1\", \"dilation\": \"(1, 1)\", \"channels\": \"64\", \"layout\": \"NCHW\", \"kernel_layout\": \"OIHW\", \"kernel_size\": \"[1, 1]\"}", 
        "{\"shift_bit\": \"1\", \"precision\": \"15\"}", 
        "", 
        "{}", 
        "{\"shift_bit\": \"22\", \"precision\": \"8\"}", 
        "{\"precision\": \"8\"}", 
        "", 
        "{}", 
        "{\"shift_bit\": \"22\", \"precision\": \"8\"}", 
        "{}", 
        "{\"shift_bit\": \"1\", \"precision\": \"8\"}", 
        "", 
        "{}", 
        "{\"shift_bit\": \"22\", \"precision\": \"8\"}", 
        "", 
        "", 
        "{\"strides\": \"(1, 1)\", \"use_bias\": \"True\", \"padding\": \"(0, 0)\", \"groups\": \"64\", \"dilation\": \"(1, 1)\", \"channels\": \"64\", \"layout\": \"NCHW\", \"kernel_layout\": \"OIHW\", \"kernel_size\": \"[1, 1]\"}", 
        "{\"shift_bit\": \"1\", \"precision\": \"14\"}", 
        "", 
        "{}", 
        "{\"shift_bit\": \"22\", \"precision\": \"8\"}", 
        "{}", 
        "", 
        "", 
        "{\"strides\": \"(1, 1)\", \"use_bias\": \"True\", \"padding\": \"(1, 1)\", \"groups\": \"1\", \"dilation\": \"(1, 1)\", \"channels\": \"64\", \"layout\": \"NCHW\", \"kernel_layout\": \"OIHW\", \"kernel_size\": \"[3, 3]\"}", 
        "{\"precision\": \"17\"}", 
        "", 
        "{}", 
        "{\"shift_bit\": \"22\", \"precision\": \"8\"}", 
        "{}", 
        "", 
        "{\"strides\": \"(1, 1)\", \"use_bias\": \"False\", \"padding\": \"(1, 1)\", \"groups\": \"1\", \"dilation\": \"(1, 1)\", \"channels\": \"64\", \"layout\": \"NCHW\", \"kernel_layout\": \"OIHW\", \"kernel_size\": \"[3, 3]\"}", 
        "{\"shift_bit\": \"1\", \"precision\": \"16\"}", 
        "", 
        "{}", 
        "{\"shift_bit\": \"22\", \"precision\": \"8\"}", 
        "{\"precision\": \"8\"}", 
        "", 
        "{}", 
        "{\"shift_bit\": \"23\", \"precision\": \"8\"}", 
        "{}", 
        "{\"precision\": \"9\"}", 
        "", 
        "{}", 
        "{\"shift_bit\": \"22\", \"precision\": \"8\"}", 
        "", 
        "", 
        "{\"strides\": \"(1, 1)\", \"use_bias\": \"True\", \"padding\": \"(0, 0)\", \"groups\": \"64\", \"dilation\": \"(1, 1)\", \"channels\": \"64\", \"layout\": \"NCHW\", \"kernel_layout\": \"OIHW\", \"kernel_size\": \"[1, 1]\"}", 
        "{\"shift_bit\": \"1\", \"precision\": \"14\"}", 
        "", 
        "{}", 
        "{\"shift_bit\": \"22\", \"precision\": \"8\"}", 
        "{}", 
        "", 
        "", 
        "{\"strides\": \"(1, 1)\", \"use_bias\": \"True\", \"padding\": \"(1, 1)\", \"groups\": \"1\", \"dilation\": \"(1, 1)\", \"channels\": \"64\", \"layout\": \"NCHW\", \"kernel_layout\": \"OIHW\", \"kernel_size\": \"[3, 3]\"}", 
        "{\"precision\": \"16\"}", 
        "", 
        "{}", 
        "{\"shift_bit\": \"22\", \"precision\": \"8\"}", 
        "{}", 
        "", 
        "{\"strides\": \"(1, 1)\", \"use_bias\": \"False\", \"padding\": \"(1, 1)\", \"groups\": \"1\", \"dilation\": \"(1, 1)\", \"channels\": \"64\", \"layout\": \"NCHW\", \"kernel_layout\": \"OIHW\", \"kernel_size\": \"[3, 3]\"}", 
        "{\"precision\": \"18\"}", 
        "", 
        "{}", 
        "{\"shift_bit\": \"20\", \"precision\": \"8\"}", 
        "{\"precision\": \"8\"}", 
        "", 
        "{}", 
        "{\"shift_bit\": \"23\", \"precision\": \"8\"}", 
        "{}", 
        "{\"precision\": \"9\"}", 
        "", 
        "{}", 
        "{\"shift_bit\": \"21\", \"precision\": \"8\"}", 
        "", 
        "", 
        "{\"strides\": \"(1, 1)\", \"use_bias\": \"True\", \"padding\": \"(0, 0)\", \"groups\": \"64\", \"dilation\": \"(1, 1)\", \"channels\": \"64\", \"layout\": \"NCHW\", \"kernel_layout\": \"OIHW\", \"kernel_size\": \"[1, 1]\"}", 
        "{\"precision\": \"15\"}", 
        "", 
        "{}", 
        "{\"shift_bit\": \"22\", \"precision\": \"8\"}", 
        "{}", 
        "{\"axis\": \"(2, 3)\"}", 
        "{\"shift_bit\": \"1\", \"precision\": \"12\"}", 
        "", 
        "{}", 
        "{\"shift_bit\": \"22\", \"precision\": \"8\"}", 
        "", 
        "{}", 
        "{\"precision\": \"15\"}", 
        "", 
        "{}", 
        "{\"shift_bit\": \"21\", \"precision\": \"8\"}", 
        "{}", 
        "{}", 
        "", 
        "", 
        "{\"use_bias\": \"True\", \"units\": \"10\"}", 
        "{\"precision\": \"16\"}", 
        "", 
        "{}", 
        "{\"shift_bit\": \"22\", \"precision\": \"8\"}"]], 
    "dltype": ["list_str", [
        "int32", 
        "int32", 
        "int32", 
        "int32", 
        "int32", 
        "int32", 
        "int32", 
        "int32", 
        "int32", 
        "int32", 
        "int32", 
        "int32", 
        "int32", 
        "int32", 
        "int32", 
        "int32", 
        "int32", 
        "int32", 
        "int32", 
        "int32", 
        "int32", 
        "int32", 
        "int32", 
        "int32", 
        "int32", 
        "int32", 
        "int32", 
        "int32", 
        "int32", 
        "int32", 
        "int32", 
        "int32", 
        "int32", 
        "int32", 
        "int32", 
        "int32", 
        "int32", 
        "int32", 
        "int32", 
        "int32", 
        "int32", 
        "int32", 
        "int32", 
        "int32", 
        "int32", 
        "int32", 
        "int32", 
        "int32", 
        "int32", 
        "int32", 
        "int32", 
        "int32", 
        "int32", 
        "int32", 
        "int32", 
        "int32", 
        "int32", 
        "int32", 
        "int32", 
        "int32", 
        "int32", 
        "int32", 
        "int32", 
        "int32", 
        "int32", 
        "int32", 
        "int32", 
        "int32", 
        "int32", 
        "int32", 
        "int32", 
        "int32", 
        "int32", 
        "int32", 
        "int32", 
        "int32", 
        "int32", 
        "int32", 
        "int32", 
        "int32", 
        "int32", 
        "int32", 
        "int32", 
        "int32", 
        "int32", 
        "int32", 
        "int32", 
        "int32", 
        "int32", 
        "int32", 
        "int32", 
        "int32", 
        "int32", 
        "int32", 
        "int32", 
        "int32", 
        "int32", 
        "int32", 
        "int32", 
        "int32", 
        "int32", 
        "int32", 
        "int32", 
        "int32", 
        "int32", 
        "int32", 
        "int32", 
        "int32", 
        "int32", 
        "int32", 
        "int32", 
        "int32", 
        "int32", 
        "int32", 
        "int32", 
        "int32", 
        "int32", 
        "int32", 
        "int32", 
        "int32", 
        "int32", 
        "int32", 
        "int32", 
        "int32", 
        "int32", 
        "int32", 
        "int32", 
        "int32", 
        "int32", 
        "int32", 
        "int32", 
        "int32", 
        "int32", 
        "int32", 
        "int32", 
        "int32", 
        "int32", 
        "int32", 
        "int32", 
        "int32", 
        "int32", 
        "int32", 
        "int32", 
        "int32", 
        "int32", 
        "int32", 
        "int32", 
        "int32", 
        "int32", 
        "int32", 
        "int32", 
        "int32", 
        "int32", 
        "int32", 
        "int32", 
        "int32", 
        "int32", 
        "int32", 
        "int32", 
        "int32", 
        "int32", 
        "int32", 
        "int32", 
        "int32", 
        "int32", 
        "int32", 
        "int32", 
        "int32", 
        "int32", 
        "int32", 
        "int32", 
        "int32", 
        "int32", 
        "int32", 
        "int32", 
        "int32", 
        "int32", 
        "int32", 
        "int32", 
        "int32", 
        "int32", 
        "int32", 
        "int32", 
        "int32", 
        "int32", 
        "int32", 
        "int32", 
        "int32", 
        "int32", 
        "int32", 
        "int32", 
        "int32", 
        "int32", 
        "int32", 
        "int32", 
        "int32", 
        "int32", 
        "int32", 
        "int32", 
        "int32", 
        "int32", 
        "int32", 
        "int32", 
        "int32", 
        "int32", 
        "int32", 
        "int32", 
        "int32", 
        "int32", 
        "int32", 
        "int32", 
        "int32", 
        "int32", 
        "int32", 
        "int32", 
        "int32", 
        "int32", 
        "int32", 
        "int32", 
        "int32", 
        "int32", 
        "int32", 
        "int32", 
        "int32", 
        "int32", 
        "int32", 
        "int32", 
        "int32", 
        "int32", 
        "int32", 
        "int32", 
        "int32", 
        "int32", 
        "int32", 
        "int32", 
        "int32", 
        "int32", 
        "int32", 
        "int32", 
        "int32", 
        "int32", 
        "int32", 
        "int32", 
        "int32", 
        "int32", 
        "int32", 
        "int32", 
        "int32", 
        "int32", 
        "int32", 
        "int32", 
        "int32", 
        "int32", 
        "int32", 
        "int32", 
        "int32", 
        "int32", 
        "int32", 
        "int32", 
        "int32", 
        "int32", 
        "int32", 
        "int32", 
        "int32", 
        "int32", 
        "int32", 
        "int32", 
        "int32", 
        "int32", 
        "int32", 
        "int32", 
        "int32", 
        "int32", 
        "int32", 
        "int32", 
        "int32", 
        "int32", 
        "int32", 
        "int32", 
        "int32", 
        "int32", 
        "int32", 
        "int32", 
        "int32", 
        "int32", 
        "int32", 
        "int32", 
        "int32", 
        "int32", 
        "int32", 
        "int32", 
        "int32", 
        "int32", 
        "int32", 
        "int32", 
        "int32", 
        "int32", 
        "int32", 
        "int32", 
        "int32", 
        "int32", 
        "int32", 
        "int32", 
        "int32", 
        "int32", 
        "int32", 
        "int32", 
        "int32", 
        "int32", 
        "int32", 
        "int32", 
        "int32", 
        "int32", 
        "int32", 
        "int32", 
        "int32", 
        "int32", 
        "int32", 
        "int32", 
        "int32", 
        "int32", 
        "int32", 
        "int32", 
        "int32", 
        "int32", 
        "int32", 
        "int32", 
        "int32", 
        "int32", 
        "int32", 
        "int32", 
        "int32", 
        "int32"]], 
    "shape": ["list_shape", [
        [1, 3, 32, 32], 
        [3, 1, 1, 1], 
        [3], 
        [1, 3, 32, 32], 
        [1, 3, 32, 32], 
        [1], 
        [1, 3, 32, 32], 
        [1, 3, 32, 32], 
        [16, 3, 3, 3], 
        [16], 
        [1, 16, 32, 32], 
        [1, 16, 32, 32], 
        [1], 
        [1, 16, 32, 32], 
        [1, 16, 32, 32], 
        [1, 16, 32, 32], 
        [16, 16, 3, 3], 
        [16], 
        [1, 16, 32, 32], 
        [1, 16, 32, 32], 
        [1], 
        [1, 16, 32, 32], 
        [1, 16, 32, 32], 
        [1, 16, 32, 32], 
        [16, 16, 3, 3], 
        [1, 16, 32, 32], 
        [1, 16, 32, 32], 
        [1], 
        [1, 16, 32, 32], 
        [1, 16, 32, 32], 
        [1, 16, 32, 32], 
        [1], 
        [1, 16, 32, 32], 
        [1, 16, 32, 32], 
        [16, 3, 3, 3], 
        [1, 16, 32, 32], 
        [1, 16, 32, 32], 
        [1], 
        [1, 16, 32, 32], 
        [1, 16, 32, 32], 
        [1, 16, 32, 32], 
        [1, 16, 32, 32], 
        [1], 
        [1, 16, 32, 32], 
        [1, 16, 32, 32], 
        [16, 1, 1, 1], 
        [16], 
        [1, 16, 32, 32], 
        [1, 16, 32, 32], 
        [1], 
        [1, 16, 32, 32], 
        [1, 16, 32, 32], 
        [1, 16, 32, 32], 
        [16, 16, 3, 3], 
        [16], 
        [1, 16, 32, 32], 
        [1, 16, 32, 32], 
        [1], 
        [1, 16, 32, 32], 
        [1, 16, 32, 32], 
        [1, 16, 32, 32], 
        [16, 16, 3, 3], 
        [1, 16, 32, 32], 
        [1, 16, 32, 32], 
        [1], 
        [1, 16, 32, 32], 
        [1, 16, 32, 32], 
        [1, 16, 32, 32], 
        [1], 
        [1, 16, 32, 32], 
        [1, 16, 32, 32], 
        [1, 16, 32, 32], 
        [1, 16, 32, 32], 
        [1], 
        [1, 16, 32, 32], 
        [1, 16, 32, 32], 
        [16, 1, 1, 1], 
        [16], 
        [1, 16, 32, 32], 
        [1, 16, 32, 32], 
        [1], 
        [1, 16, 32, 32], 
        [1, 16, 32, 32], 
        [1, 16, 32, 32], 
        [16, 16, 3, 3], 
        [16], 
        [1, 16, 32, 32], 
        [1, 16, 32, 32], 
        [1], 
        [1, 16, 32, 32], 
        [1, 16, 32, 32], 
        [1, 16, 32, 32], 
        [16, 16, 3, 3], 
        [1, 16, 32, 32], 
        [1, 16, 32, 32], 
        [1], 
        [1, 16, 32, 32], 
        [1, 16, 32, 32], 
        [1, 16, 32, 32], 
        [1], 
        [1, 16, 32, 32], 
        [1, 16, 32, 32], 
        [1, 16, 32, 32], 
        [1, 16, 32, 32], 
        [1], 
        [1, 16, 32, 32], 
        [1, 16, 32, 32], 
        [16, 1, 1, 1], 
        [16], 
        [1, 16, 32, 32], 
        [1, 16, 32, 32], 
        [1], 
        [1, 16, 32, 32], 
        [1, 16, 32, 32], 
        [1, 16, 32, 32], 
        [32, 16, 3, 3], 
        [32], 
        [1, 32, 16, 16], 
        [1, 32, 16, 16], 
        [1], 
        [1, 32, 16, 16], 
        [1, 32, 16, 16], 
        [1, 32, 16, 16], 
        [32, 32, 3, 3], 
        [1, 32, 16, 16], 
        [1, 32, 16, 16], 
        [1], 
        [1, 32, 16, 16], 
        [1, 32, 16, 16], 
        [1, 32, 16, 16], 
        [1], 
        [1, 32, 16, 16], 
        [1, 32, 16, 16], 
        [32, 16, 1, 1], 
        [1, 32, 16, 16], 
        [1, 32, 16, 16], 
        [1], 
        [1, 32, 16, 16], 
        [1, 32, 16, 16], 
        [1, 32, 16, 16], 
        [1, 32, 16, 16], 
        [1], 
        [1, 32, 16, 16], 
        [1, 32, 16, 16], 
        [32, 1, 1, 1], 
        [32], 
        [1, 32, 16, 16], 
        [1, 32, 16, 16], 
        [1], 
        [1, 32, 16, 16], 
        [1, 32, 16, 16], 
        [1, 32, 16, 16], 
        [32, 32, 3, 3], 
        [32], 
        [1, 32, 16, 16], 
        [1, 32, 16, 16], 
        [1], 
        [1, 32, 16, 16], 
        [1, 32, 16, 16], 
        [1, 32, 16, 16], 
        [32, 32, 3, 3], 
        [1, 32, 16, 16], 
        [1, 32, 16, 16], 
        [1], 
        [1, 32, 16, 16], 
        [1, 32, 16, 16], 
        [1, 32, 16, 16], 
        [1], 
        [1, 32, 16, 16], 
        [1, 32, 16, 16], 
        [1, 32, 16, 16], 
        [1, 32, 16, 16], 
        [1], 
        [1, 32, 16, 16], 
        [1, 32, 16, 16], 
        [32, 1, 1, 1], 
        [32], 
        [1, 32, 16, 16], 
        [1, 32, 16, 16], 
        [1], 
        [1, 32, 16, 16], 
        [1, 32, 16, 16], 
        [1, 32, 16, 16], 
        [32, 32, 3, 3], 
        [32], 
        [1, 32, 16, 16], 
        [1, 32, 16, 16], 
        [1], 
        [1, 32, 16, 16], 
        [1, 32, 16, 16], 
        [1, 32, 16, 16], 
        [32, 32, 3, 3], 
        [1, 32, 16, 16], 
        [1, 32, 16, 16], 
        [1], 
        [1, 32, 16, 16], 
        [1, 32, 16, 16], 
        [1, 32, 16, 16], 
        [1], 
        [1, 32, 16, 16], 
        [1, 32, 16, 16], 
        [1, 32, 16, 16], 
        [1, 32, 16, 16], 
        [1], 
        [1, 32, 16, 16], 
        [1, 32, 16, 16], 
        [32, 1, 1, 1], 
        [32], 
        [1, 32, 16, 16], 
        [1, 32, 16, 16], 
        [1], 
        [1, 32, 16, 16], 
        [1, 32, 16, 16], 
        [1, 32, 16, 16], 
        [64, 32, 3, 3], 
        [64], 
        [1, 64, 8, 8], 
        [1, 64, 8, 8], 
        [1], 
        [1, 64, 8, 8], 
        [1, 64, 8, 8], 
        [1, 64, 8, 8], 
        [64, 64, 3, 3], 
        [1, 64, 8, 8], 
        [1, 64, 8, 8], 
        [1], 
        [1, 64, 8, 8], 
        [1, 64, 8, 8], 
        [64, 32, 1, 1], 
        [1, 64, 8, 8], 
        [1, 64, 8, 8], 
        [1], 
        [1, 64, 8, 8], 
        [1, 64, 8, 8], 
        [1, 64, 8, 8], 
        [1], 
        [1, 64, 8, 8], 
        [1, 64, 8, 8], 
        [1, 64, 8, 8], 
        [1, 64, 8, 8], 
        [1], 
        [1, 64, 8, 8], 
        [1, 64, 8, 8], 
        [64, 1, 1, 1], 
        [64], 
        [1, 64, 8, 8], 
        [1, 64, 8, 8], 
        [1], 
        [1, 64, 8, 8], 
        [1, 64, 8, 8], 
        [1, 64, 8, 8], 
        [64, 64, 3, 3], 
        [64], 
        [1, 64, 8, 8], 
        [1, 64, 8, 8], 
        [1], 
        [1, 64, 8, 8], 
        [1, 64, 8, 8], 
        [1, 64, 8, 8], 
        [64, 64, 3, 3], 
        [1, 64, 8, 8], 
        [1, 64, 8, 8], 
        [1], 
        [1, 64, 8, 8], 
        [1, 64, 8, 8], 
        [1, 64, 8, 8], 
        [1], 
        [1, 64, 8, 8], 
        [1, 64, 8, 8], 
        [1, 64, 8, 8], 
        [1, 64, 8, 8], 
        [1], 
        [1, 64, 8, 8], 
        [1, 64, 8, 8], 
        [64, 1, 1, 1], 
        [64], 
        [1, 64, 8, 8], 
        [1, 64, 8, 8], 
        [1], 
        [1, 64, 8, 8], 
        [1, 64, 8, 8], 
        [1, 64, 8, 8], 
        [64, 64, 3, 3], 
        [64], 
        [1, 64, 8, 8], 
        [1, 64, 8, 8], 
        [1], 
        [1, 64, 8, 8], 
        [1, 64, 8, 8], 
        [1, 64, 8, 8], 
        [64, 64, 3, 3], 
        [1, 64, 8, 8], 
        [1, 64, 8, 8], 
        [1], 
        [1, 64, 8, 8], 
        [1, 64, 8, 8], 
        [1, 64, 8, 8], 
        [1], 
        [1, 64, 8, 8], 
        [1, 64, 8, 8], 
        [1, 64, 8, 8], 
        [1, 64, 8, 8], 
        [1], 
        [1, 64, 8, 8], 
        [1, 64, 8, 8], 
        [64, 1, 1, 1], 
        [64], 
        [1, 64, 8, 8], 
        [1, 64, 8, 8], 
        [1], 
        [1, 64, 8, 8], 
        [1, 64, 8, 8], 
        [1, 64, 8, 8], 
        [1, 64], 
        [1, 64], 
        [1], 
        [1, 64], 
        [1, 64], 
        [1], 
        [1, 64], 
        [1, 64], 
        [1], 
        [1, 64], 
        [1, 64], 
        [1, 64], 
        [1, 64], 
        [10, 64], 
        [10], 
        [1, 10], 
        [1, 10], 
        [1], 
        [1, 10], 
        [1, 10]]]
  }
}